example/lightning_logs/version_4/checkpoints/epoch=249-step=1250.ckpt (torch, 5131 bytes, 6 tensors)

l1.weight f4 [4, 8]
0	0x40a489bb	5.141813
1	0xbf8e206f	-1.1103648
2	0x4044f2ed	3.077327
3	0x402c325b	2.6905735
4	0xc03c90b0	-2.946331
5	0x40718fb9	3.7743971
6	0xc00af1fe	-2.17102
7	0xc0e3f5b8	-7.123745
8	0xbea9b2ab	-0.33144125
9	0xbdaa6b94	-0.083213
10	0x3e4a8f56	0.19781241
11	0xbe2785ea	-0.16359678
12	0xbd68c798	-0.056830972
13	0xbd37cc28	-0.044872433
14	0x3e30fd7a	0.17284194
15	0x3c4918c0	0.012273967
16	0xbf75361b	-0.95785683
17	0x402e0641	2.7191317
18	0x40ba9ce3	5.831651
19	0xbd856604	-0.065135986
20	0xc04a5da9	-3.1619666
21	0x40368125	2.8516324
22	0xbf25503f	-0.6457557
23	0xbff1f229	-1.8902026
24	0x3e0a7d6e	0.1352441
25	0xbde4fc6a	-0.11180957
26	0xbe7c289e	-0.24624869
27	0xbe0d6978	-0.13809764
28	0x3e1904d6	0.14943251
29	0xbe3a0763	-0.1816688
30	0xbe79eebe	-0.24407479
31	0x3e4a2d42	0.19743827

l1.bias f4 [4]
0	0x40abb568	5.3658943
1	0xbea6f74e	-0.32610554
2	0x3ead7c3a	0.3388384
3	0x3e1cc83e	0.15310761

exp_avg f4 [4, 8]
0	0xbf49db60	-0.78850365
1	0x3eec749f	0.46182725
2	0x3d471ee8	0.04861346
3	0xbd94bbb8	-0.07262367
4	0x3fad1de7	1.352475
5	0xbdd370d0	-0.10324252
6	0x3fd994f0	1.6998577
7	0x3fed27a8	1.8527727
8	0x00000000	0.0
9	0x00000000	0.0
10	0x00000000	0.0
11	0x00000000	0.0
12	0x00000000	0.0
13	0x00000000	0.0
14	0x00000000	0.0
15	0x00000000	0.0
16	0x3d412f8a	0.047164477
17	0xbd9bb603	-0.07603075
18	0xbed01e71	-0.40648225
19	0x3d04db42	0.032435663
20	0x3e494656	0.19655737
21	0xbda030e4	-0.07821825
22	0xbd8c6dc2	-0.06856872
23	0x3e6e5b76	0.23277077
24	0x00000000	0.0
25	0x00000000	0.0
26	0x00000000	0.0
27	0x00000000	0.0
28	0x00000000	0.0
29	0x00000000	0.0
30	0x00000000	0.0
31	0x00000000	0.0

exp_avg_sq f4 [4, 8]
0	0x424a8439	50.629124
1	0x4104cbf5	8.299794
2	0x405156aa	3.2709146
3	0x424bc6a6	50.943993
4	0x41bc39aa	23.528156
5	0x41de0070	27.750214
6	0x42246aa5	41.104145
7	0x41339ccc	11.2257805
8	0x00000000	0.0
9	0x00000000	0.0
10	0x00000000	0.0
11	0x00000000	0.0
12	0x00000000	0.0
13	0x00000000	0.0
14	0x00000000	0.0
15	0x00000000	0.0
16	0x40955f8d	4.667914
17	0x408764af	4.2310405
18	0x40248f5a	2.5712495
19	0x3fd30b5e	1.6487844
20	0x4037a318	2.8693295
21	0x3f7aee47	0.9801983
22	0x40272de9	2.6121771
23	0x40628b60	3.5397568
24	0x00000000	0.0
25	0x00000000	0.0
26	0x00000000	0.0
27	0x00000000	0.0
28	0x00000000	0.0
29	0x00000000	0.0
30	0x00000000	0.0
31	0x00000000	0.0

exp_avg f4 [4]
0	0xbda08069	-0.07836992
1	0x00000000	0.0
2	0xbb9f5e90	-0.0048635677
3	0x00000000	0.0

exp_avg_sq f4 [4]
0	0x3edebef5	0.43505064
1	0x00000000	0.0
2	0x3d5fc9dc	0.054635867
3	0x00000000	0.0
