example/lightning_logs/version_18/checkpoints/epoch=249-step=1000.ckpt (torch, 64346 bytes, 18 tensors)

model.0.weight f4 [64, 4]
0	0x3d72d8d0	0.0592888
1	0xbe35f044	-0.17767435
2	0x3eecde40	0.46263313
3	0x3e1c7fb8	0.15283096
4	0xbee1c8f8	-0.4409864
5	0x3e085eec	0.1331746
6	0xbdcfe428	-0.10150939
7	0x3d8d6df0	0.069057345
8	0x3ecc3e42	0.3989125
9	0xbdc4c728	-0.096082985
10	0x3e7b2ff0	0.24530005
11	0xbea3fd98	-0.32029414
12	0xbe26fe6c	-0.16307992
13	0xbece173c	-0.402521
14	0xbe471668	-0.19442141
15	0x3e9af23a	0.3026293
16	0xbe040d5b	-0.1289572
17	0x3ef7dc09	0.4841006
18	0x3ef8a774	0.48565257
19	0x3e9e18b8	0.30878234
20	0x3e580522	0.21095708
21	0xbe85ed41	-0.26157573
22	0x3ec32664	0.38115227
23	0xbeb652a2	-0.3560992
24	0xbe7d65a8	-0.2474581
25	0x3e53bee4	0.20678288
26	0x3d9a4328	0.0753234
27	0xbec781d0	-0.38966227
28	0xbeda4ada	-0.42635232
29	0x3e8396b0	0.25700903
30	0xbe8b0022	-0.2714854
31	0xbeef29a0	-0.46711445
32	0x3e766f3f	0.24065875
33	0xbe76d8d2	-0.24106148
34	0xbe91ffa8	-0.28515363
35	0x3e0a5e20	0.13512468
36	0xbe66cd18	-0.22539175
37	0xbd18af20	-0.037276387
38	0x3ea9e56e	0.33182853
39	0xbeec6312	-0.46169335
40	0xbc8f4167	-0.017487241
41	0x3eade537	0.3396394
42	0xbe53d848	-0.20687973
43	0x3e7c2a2c	0.24625462
44	0xbe31363f	-0.1730585
45	0x3f091298	0.53543997
46	0x3efeef42	0.49791914
47	0xbea8e622	-0.32988077
48	0xbed25ef6	-0.41088074
49	0xbe839d4a	-0.2570594
50	0x3da1a318	0.07892436
51	0xbe83ac4c	-0.2571739
52	0xbe9b9619	-0.30387953
53	0x3f057917	0.52137893
54	0xbe14a5f0	-0.14516425
55	0x3e41509c	0.18878406
56	0x3dd94b97	0.10610121
57	0x3d6609d8	0.05616173
58	0xbec77a1c	-0.3896035
59	0x3e46f9f0	0.19431281
60	0xbc6686ef	-0.014070257
61	0x3e2cb5b2	0.16866186
62	0xbe5b9ad8	-0.21445787
63	0xbe823076	-0.25427598
64	0x3ed140ea	0.40869838
65	0xbda94140	-0.082643986
66	0x3e282640	0.16420841
67	0xbec5e2ba	-0.3864954
68	0xbbad6a00	-0.005292177
69	0xbe3e1468	-0.18562472
70	0xbdea9a70	-0.11455238
71	0x3d1951c0	0.03743148
72	0xbe4a4ae8	-0.19755137
73	0x3e196adc	0.1498217
74	0xbee9176a	-0.45525676
75	0xbde77e20	-0.11303353
76	0x3ea4c7ea	0.32183772
77	0x3e5491ed	0.20758791
78	0xbe743d7c	-0.2385158
79	0x3e93016e	0.28712028
80	0x3e9bc15e	0.30420965
81	0xbe330a41	-0.1748438
82	0x3e0f5eec	0.14001054
83	0xbce914a0	-0.028452218
84	0x3eef80b8	0.46777892
85	0xbe334c29	-0.17509522
86	0x3ee7cdc6	0.4527418
87	0xbe6ebf9c	-0.2331528
88	0x3ead3e31	0.3383651
89	0xbecd188b	-0.40057787
90	0xbe8c8bd0	-0.27450418
91	0xbe906954	-0.2820536
92	0xbe9da5aa	-0.30790454
93	0x3eb5729e	0.35439008
94	0x3ef8da36	0.48603982
95	0x3dddd3d0	0.10831416
96	0x3ed11d47	0.4084265
97	0x3dc4fdfe	0.09618758
98	0xbe814bd2	-0.2525316
99	0x3e12f6c4	0.14351946
100	0xbdae58d1	-0.08513034
101	0x3e1ed0cd	0.15509339
102	0x3ce0c380	0.027436972
103	0xbdf4b610	-0.11948788
104	0xbea84924	-0.32868302
105	0xbe7b2d84	-0.24529082
106	0x3be15680	0.0068767667
107	0x3ea7bc92	0.32761055
108	0x3e75717f	0.23969077
109	0x3ea4a364	0.32155907
110	0xbd37e6c0	-0.044897795
111	0x3edb9eba	0.42894536
112	0xbea70f74	-0.32628977
113	0x3d9380a8	0.072022736
114	0xbea24354	-0.31691992
115	0xbe876488	-0.26443887
116	0x3d9c5ff0	0.07635486
117	0xbedadc2c	-0.42746103
118	0xbedf2c1c	-0.4358834
119	0xbe6024e8	-0.21889079
120	0xbeb3f498	-0.35147548
121	0x3ec27974	0.37983286
122	0x3e29271c	0.16518825
123	0xbd575aa0	-0.05257666
124	0x3ef0d2ee	0.47035927
125	0x3d7464b6	0.059666358
126	0xbebc82f8	-0.3681867
127	0xbea2a03c	-0.31762874
128	0x3eade405	0.33963028
129	0xbeb5689d	-0.35431376
130	0x3e780fcc	0.24224776
131	0xbecfec2e	-0.40609878
132	0xbe710b54	-0.23539478
133	0xbea5e5ca	-0.32401878
134	0x3c9eb180	0.019371748
135	0xbeaedab8	-0.34151244
136	0xbece09d4	-0.40241873
137	0xbe84960e	-0.25895733
138	0x3d846610	0.064647794
139	0x3e71e750	0.23623395
140	0x3ecc80d8	0.3994205
141	0xbdbb60f3	-0.09149351
142	0x3eef1a5c	0.46699798
143	0x3ed6801a	0.4189461
144	0x3e179e06	0.14806375
145	0x3db9ceba	0.09072633
146	0x3ee224d2	0.44168717
147	0xbe833ab4	-0.25630724
148	0xbe9daa7e	-0.30794138
149	0x3e0c2494	0.13685828
150	0xbec68af4	-0.38777888
151	0xbe97e090	-0.29663515
152	0x3e215fc2	0.15759185
153	0x3eb867de	0.36016744
154	0x3eeb74dc	0.45987594
155	0xbeb74f98	-0.35802913
156	0x3e75f64c	0.24019736
157	0xbe8f03a3	-0.27932462
158	0x3d12b2b0	0.03581494
159	0xbdaf50d8	-0.085603416
160	0xbdbc8b48	-0.09206253
161	0xbeedc8a0	-0.46442127
162	0x3e09766c	0.1342408
163	0x3c473340	0.012158215
164	0x3eed8992	0.4639402
165	0xbed1fde3	-0.41014013
166	0x3ee8e29e	0.45485395
167	0xbe9a66f2	-0.30156666
168	0xbea9bf60	-0.3315382
169	0xbd118950	-0.035531342
170	0x3ea07cb4	0.3134514
171	0x3e845452	0.2584558
172	0xbe998590	-0.29984713
173	0xbed9daf2	-0.42549855
174	0x3ee72966	0.45148772
175	0xbe43bb04	-0.1911431
176	0x3e82ab5e	0.25521368
177	0xbd3f0168	-0.0466322
178	0xbeab7236	-0.33485574
179	0xbd55c0a0	-0.052185655
180	0x3eb25de0	0.34837246
181	0xbed7e2fd	-0.42165366
182	0x3efae8fa	0.49005872
183	0xbee011d4	-0.43763602
184	0x3eb822be	0.35964006
185	0x3eeb9cfe	0.46018213
186	0xbdf4aa10	-0.11946499
187	0xbd531810	-0.05153662
188	0xbe08cf80	-0.13360405
189	0xbee47864	-0.446231
190	0xbedb5e4c	-0.4284538
191	0xbe595b90	-0.21226335
192	0x3e94efa8	0.29089093
193	0xbd7e36bd	-0.06206392
194	0x3e9e3c9c	0.30905616
195	0xbe8c018a	-0.27344924
196	0x3de7d818	0.113205135
197	0xbef776e6	-0.483329
198	0xbe838d02	-0.25693518
199	0x3ed08bca	0.4073165
200	0xbe0ba9a8	-0.13638937
201	0xbe6a322c	-0.22870702
202	0x3dcf7b28	0.10130912
203	0x3eda7992	0.42670876
204	0xbec73c3e	-0.3891315
205	0xbe8124da	-0.25223428
206	0xbe883798	-0.26604915
207	0x3e7ba060	0.24572897
208	0xbbdf8fb6	-0.0068225516
209	0x3e91e5d9	0.28495672
210	0x3ec0d0b6	0.37659234
211	0xbe76f1cc	-0.24115676
212	0xbdc05430	-0.093910575
213	0xbe81a60e	-0.25322002
214	0xbe97164a	-0.29509193
215	0xbd1ca130	-0.038239658
216	0x3e524334	0.20533448
217	0x3ed95f3d	0.42455474
218	0xbe8124e0	-0.25223446
219	0xbeb07a1c	-0.34468162
220	0x3e5a97f5	0.2134703
221	0x3eb4ffce	0.35351413
222	0xbef5b826	-0.47992057
223	0x3eb05eac	0.3444723
224	0xbeb39200	-0.35072327
225	0xbea4f33a	-0.32216817
226	0x3e5fc108	0.2185098
227	0xbe92c6f0	-0.28667402
228	0xbeb806a6	-0.35942572
229	0xbe823cf6	-0.25437135
230	0x3ebb03f8	0.36526465
231	0xbef132a6	-0.47108954
232	0x3d863968	0.06553918
233	0xbedcb3d8	-0.4310596
234	0xbdf4a7a0	-0.119460344
235	0x3d354b50	0.044261277
236	0xbcc73d48	-0.024321213
237	0x3de923de	0.11383794
238	0xbc07c2c0	-0.008286178
239	0x3eb4659a	0.35233766
240	0xbdb02c70	-0.08602226
241	0x3d8652f0	0.06558788
242	0x3d96d6c0	0.07365179
243	0xbe769f7c	-0.24084276
244	0xbe541944	-0.20712763
245	0xbcbb3920	-0.022854388
246	0x3ecf7c7e	0.40524668
247	0xbe12c380	-0.1433239
248	0xbc037240	-0.008022845
249	0xbeb733a8	-0.35781598
250	0x3ed5fd02	0.41794592
251	0x3ee24730	0.44194937
252	0x3e554ac9	0.2082931
253	0x3ea8d284	0.3297311
254	0xbe14fa78	-0.14548671
255	0xbd9e3b50	-0.07726157

model.0.bias f4 [64]
0	0xbef11f8e	-0.47094387
1	0x3e9e5780	0.30926132
2	0xbd949d6a	-0.07256587
3	0xbe8c43b4	-0.27395403
4	0xbedb8e43	-0.42881975
5	0xbda3ddad	-0.08001266
6	0xbeb58818	-0.35455394
7	0xbee9e8c8	-0.4568541
8	0xbe5389fb	-0.20658104
9	0xbe95b544	-0.29239857
10	0xbe23700b	-0.1596071
11	0xbe824be7	-0.25448534
12	0x3eac4414	0.3364569
13	0x3eb5db42	0.35518843
14	0x3e20aea4	0.1569162
15	0xbef6b183	-0.48182306
16	0x3d59214e	0.053010277
17	0x3e633764	0.22189099
18	0x3e945ad8	0.28975558
19	0xbe027527	-0.12740003
20	0x3e281d52	0.16417435
21	0xbe3fd5ce	-0.18733904
22	0xbe971ce0	-0.29514217
23	0xbed50ed0	-0.41612864
24	0xbe1e097d	-0.15433307
25	0x3ec6c9fc	0.38825977
26	0xbebec948	-0.3726294
27	0x3eca498c	0.39509237
28	0xbe9ddf1c	-0.3083428
29	0x3dd70958	0.10499829
30	0x3ec6dd1c	0.38840568
31	0x3dcf7159	0.10129041
32	0x3ee9c624	0.45658982
33	0x3eb161c2	0.34644896
34	0xbed5a920	-0.41730595
35	0x3ecd222f	0.40065143
36	0x3ec041f2	0.37550312
37	0x3cda3920	0.026638567
38	0x3e7e9068	0.24859774
39	0x3ea3c578	0.31986594
40	0xbdfa5d68	-0.12224847
41	0x3ec7c576	0.39017838
42	0x3e362484	0.17787367
43	0xbe2156c0	-0.15755749
44	0x3e294c96	0.16533121
45	0x3ea2141e	0.31655973
46	0xbe9c0221	-0.30470374
47	0x3ebaa88e	0.36456722
48	0x3ee4a11a	0.4465416
49	0x3cee6840	0.029102445
50	0xbb010d00	-0.0019691586
51	0x3ee75872	0.45184666
52	0xbe1a318e	-0.15057966
53	0xbd90b2d0	-0.07065356
54	0x3e98f565	0.2987472
55	0x3d419f5a	0.04727111
56	0xbedbcf88	-0.4293177
57	0xbcd86600	-0.026415825
58	0x3eaa9e70	0.33324003
59	0xbeded938	-0.435251
60	0x3d57cf00	0.052687645
61	0xbeb26776	-0.3484456
62	0x3e03ecf4	0.12883359
63	0xbe90b5ba	-0.28263646

model.3.weight f4 [64, 64]
0	0x3dc5c66c	0.096569866
1	0x3ce00640	0.02734673
2	0xbde8aad9	-0.113607116
3	0xbd9a6814	-0.075393826
4	0xbc6976f8	-0.014249556
5	0xbd26c3ca	-0.040714063
6	0x3d0c8bb0	0.034312904
7	0x3cb72f38	0.022361383
8	0xbd7d8d88	-0.061902553
9	0x3c7f6010	0.015586868
10	0xbd1c1efe	-0.038115494
11	0xbda45ff0	-0.08026111
12	0xbdbf711c	-0.09347746
13	0x3d504559	0.050847385
14	0x3d3fba06	0.046808265
15	0xbbbc6771	-0.005749636
16	0x3c41797d	0.01180875
17	0xbcb0d570	-0.02158615
18	0xbd1cdd6c	-0.0382971
19	0x3d862327	0.065496735
20	0xbca48e72	-0.020087454
21	0x3d5a0b7c	0.05323361
22	0x3dd683c9	0.10474355
23	0x3bd82a40	0.0065968335
24	0x3d90f3e2	0.07077767
25	0x3db34e02	0.08755113
26	0xbd78b03c	-0.060714945
27	0xbd20d70c	-0.039267585
28	0xbddedab8	-0.10881561
29	0x3cd28bf8	0.025701508
30	0x3ddcd2cc	0.10782394
31	0x3de1d937	0.110277586
32	0xbd3f0a9a	-0.04664097
33	0x3c8a2c68	0.016866878
34	0x3d2b9180	0.041886806
35	0x3cbbf82a	0.022945482
36	0xbd47ca94	-0.048777178
37	0xbdc05d40	-0.09392786
38	0x3dde5915	0.10856835
39	0x3dbcc533	0.092173
40	0xbdb940da	-0.090455726
41	0x3d140bea	0.036144175
42	0xbcaa75a8	-0.020808056
43	0xbd885b74	-0.06658068
44	0xbdb80efc	-0.08987233
45	0x3d23cc9a	0.039990045
46	0xbddba319	-0.10724468
47	0x3d380398	0.044925302
48	0xbdd47a3e	-0.10374878
49	0xbc77f700	-0.015134573
50	0x3cc7cca0	0.024389565
51	0xbd894bde	-0.06703924
52	0x3d366d02	0.04453755
53	0xbdb6fb78	-0.089346826
54	0xbde26824	-0.110550195
55	0xbdc34d19	-0.095361896
56	0x3db436b8	0.08799499
57	0x3dc3d016	0.095611736
58	0xbc9f9308	-0.01947929
59	0x3d8a7b5a	0.06761809
60	0x3de9fc54	0.11425081
61	0x3db2cdd0	0.08730662
62	0x3de1fa32	0.11034049
63	0x3dcf1c92	0.10112871
64	0x3cc4bb58	0.024015114
65	0xbc6af7e0	-0.014341325
66	0x3ddc3e22	0.107540384
67	0xbcba9418	-0.022775695
68	0x3e140f22	0.14458898
69	0xbd8aa516	-0.06769769
70	0x3dcdfe5e	0.10058282
71	0xbdf8d288	-0.12149531
72	0xbd8233a6	-0.063575074
73	0x3deae9c6	0.1147037
74	0x3e17cef3	0.14825039
75	0x3d7fe91c	0.06247817
76	0x3c461e20	0.012092143
77	0x3999bf38	0.00029324903
78	0x3dcea98b	0.100909315
79	0x3e049ca7	0.12950383
80	0x3da95659	0.08268423
81	0x3d362618	0.044469923
82	0x3dd23952	0.10264839
83	0x3da32897	0.07966726
84	0x3bb76653	0.005596915
85	0xbdb0d30d	-0.08634005
86	0xbdc42f4c	-0.09579334
87	0x3a551c00	0.00081294775
88	0xbdb670b6	-0.08908217
89	0x3d7d79af	0.061883625
90	0x3dc9230e	0.09821139
91	0x3daecc40	0.08535051
92	0x3b962460	0.004581973
93	0xbdb38a54	-0.08766618
94	0x3db38754	0.08766046
95	0xbc0b2095	-0.008491655
96	0x3d26fa81	0.040766243
97	0x3d5a5774	0.053306058
98	0x3d2301f4	0.039796785
99	0x3d74737d	0.05968045
100	0x3e1a292c	0.15054768
101	0xbd20e658	-0.039282173
102	0xbddda2c3	-0.1082206
103	0xbd82b1c2	-0.06381561
104	0xbce4efb8	-0.027946338
105	0xbe034570	-0.12819457
106	0x3dd9dc5c	0.10637733
107	0x3c778630	0.015107676
108	0x3d04bb57	0.032405224
109	0x3ca56823	0.020191258
110	0xbcb87c48	-0.0225202
111	0xbde8667a	-0.11347671
112	0x3d913875	0.070908464
113	0x3d9afac4	0.07567361
114	0xbd34c078	-0.044128865
115	0x3c8d60d0	0.017258078
116	0xbcde8003	-0.02716065
117	0xbdc8b8e2	-0.098008886
118	0x3c88ccd3	0.01669923
119	0x3cee9398	0.029123113
120	0xbda5b10a	-0.08090408
121	0x3d916bca	0.07100637
122	0xbbe710c0	-0.0070515573
123	0x3dbc97f4	0.0920867
124	0xbd1e3040	-0.038620234
125	0x3cdfc200	0.027314186
126	0xbd3efed0	-0.046629727
127	0xbd95d867	-0.07316666
128	0xbd8b1064	-0.06790236
129	0xbde04ad6	-0.10951774
130	0xbd6ff1bc	-0.058580145
131	0xbdd1ea00	-0.1024971
132	0xbd9f787a	-0.07786651
133	0x3cd899bc	0.026440494
134	0x3c3fc1b0	0.011703894
135	0x3d736d24	0.059430256
136	0x3d89640c	0.067085356
137	0xbdb27b76	-0.087149546
138	0xbd1f09ae	-0.03882759
139	0x3e02fcd0	0.12791753
140	0x3d84699e	0.064654574
141	0x3de8771a	0.11350842
142	0xbd1855d7	-0.03719124
143	0x3d1cd998	0.03829345
144	0xbda9f51f	-0.08298706
145	0xbd8bae12	-0.06820311
146	0x3d11ad78	0.035565823
147	0xbde457c1	-0.1114955
148	0x3de99518	0.114053905
149	0x3c9300b4	0.017944671
150	0x3d920b3a	0.071310475
151	0x3dd1f50e	0.102518186
152	0xbdb8210d	-0.08990679
153	0x3d9f6bfa	0.07784267
154	0xbd35e3b4	-0.044406608
155	0xbcf622bc	-0.03004586
156	0x3df97e9e	0.121823534
157	0xbdb2ec52	-0.08736481
158	0xbdcd4d78	-0.100245416
159	0xbdcd62e9	-0.10028631
160	0x3d801698	0.062543094
161	0x3ca0b5b8	0.0196179
162	0xbbe32840	-0.0069322884
163	0xbdb898d8	-0.09013528
164	0xbd7196e7	-0.058981802
165	0xbb8cea20	-0.004300371
166	0xbd40e50c	-0.047093436
167	0xbd5d691f	-0.05405533
168	0x3be90460	0.0071111172
169	0xbdc07565	-0.09397391
170	0x3dfc25d6	0.12311904
171	0x3de5705a	0.1120307
172	0xbd29f21e	-0.041490667
173	0x3cf1faa9	0.02953847
174	0x3d072203	0.03299142
175	0x3cf56800	0.029956818
176	0x3dc30912	0.095232144
177	0xbd9dc616	-0.077037975
178	0x3d372548	0.04471329
179	0xbd3e9d90	-0.046536982
180	0x3e04a8c2	0.12955001
181	0xbda17720	-0.078840494
182	0x3e02643d	0.1273355
183	0x3cc957fc	0.024578087
184	0xbbca0fe0	-0.006166443
185	0xbc302b30	-0.010752484
186	0x3dbb1f8c	0.091368765
187	0x3d58f0d3	0.052964043
188	0x3dc9a75e	0.09846376
189	0xbdeb74d8	-0.114968956
190	0x3d40ba60	0.04705274
191	0x3d594c43	0.053051244
192	0xbd79ed28	-0.061017185
193	0x3dbe049a	0.092782214
194	0x3dcfc0bd	0.10144184
195	0x3d271180	0.040788174
196	0x3e7aa2f7	0.24476229
197	0xbe596fc7	-0.21234046
198	0xbc0c74f0	-0.008572802
199	0xbdd6909a	-0.10476799
200	0xbe32143a	-0.17390528
201	0xbd4d5688	-0.05013135
202	0x3e4d038d	0.20020886
203	0x3db104da	0.086435035
204	0xbd9635a8	-0.07334453
205	0x3e7703a1	0.24122478
206	0x3d4aa548	0.04947403
207	0x3e565f69	0.20934834
208	0x3cad5adc	0.02116149
209	0xbd8ddae0	-0.06926513
210	0x3d728b80	0.05921507
211	0xbd690247	-0.056886937
212	0xbe048048	-0.1293956
213	0x3dc47411	0.095924504
214	0xbd98f892	-0.07469286
215	0xbd9b8298	-0.07593268
216	0xbc9894a6	-0.018625569
217	0x3e52bc38	0.20579612
218	0xbdb2468c	-0.08704862
219	0x3de688eb	0.11256584
220	0x3d8862a4	0.06659439
221	0xbde616c0	-0.11234808
222	0x3dc12568	0.09430963
223	0xbb4fba82	-0.003169686
224	0xbdb9626d	-0.09051976
225	0xbc9af040	-0.018913388
226	0xbcd1af50	-0.02559629
227	0x3d10595e	0.035241477
228	0x3d43c0dc	0.047791347
229	0xbd0d0aa0	-0.03443396
230	0x3b2a8d78	0.0026024263
231	0xbe10d5a8	-0.14144003
232	0xbdc567cc	-0.09638938
233	0xbde40301	-0.111333854
234	0xbd38d0e0	-0.045121074
235	0xbd85166c	-0.06498417
236	0xbcf18405	-0.029481897
237	0xbd7e4f36	-0.06208726
238	0xbd64b73e	-0.055838816
239	0x3d922ad0	0.07137072
240	0x3dda527a	0.106602624
241	0xbdf0ef9c	-0.11764452
242	0xbc6b1790	-0.014348879
243	0x3dd4ef16	0.103971645
244	0x3c0366d1	0.008020119
245	0xbd0648cc	-0.03278427
246	0x3c8963fb	0.016771307
247	0xbb0e626f	-0.0021726151
248	0x3dcfd7da	0.10148592
249	0xbd668c00	-0.05628586
250	0xbd827036	-0.06369059
251	0x3e1565be	0.14589593
252	0x3d8e3d6e	0.069453105
253	0x3dba086e	0.09083639
254	0x3d8e1148	0.0693689
255	0x3db06a13	0.08613982

model.3.bias f4 [64]
0	0x3b231fd6	0.0024890802
1	0x3e013265	0.1261688
2	0xbc552bb2	-0.013010906
3	0x3bc1c713	0.005913624
4	0xbcaa2476	-0.020769339
5	0x3d424bbb	0.047435503
6	0x3d002bdf	0.03129184
7	0xbda96741	-0.08271647
8	0x3ce1db2f	0.027570335
9	0xbda8c14f	-0.08239996
10	0xbdc9cd21	-0.09853578
11	0x3e0a366d	0.13497324
12	0x3db4f8d1	0.088365205
13	0xbc976404	-0.018480308
14	0x3dc0dd9a	0.09417267
15	0xbd7d9b4a	-0.061915673
16	0x3c443617	0.011975787
17	0x3d5ae389	0.05343965
18	0x3dcecb0f	0.10097324
19	0xbc7a1a62	-0.015265079
20	0x3daa410f	0.0831319
21	0x3e006393	0.12537985
22	0x3d5f5ead	0.05453365
23	0x3cd01491	0.025400432
24	0x3b8a7817	0.0042257416
25	0x3d300fe6	0.042983912
26	0x3d968362	0.07349278
27	0xbbe9c116	-0.0071336133
28	0x3daf62ee	0.08563791
29	0x3e09b5b6	0.13448223
30	0x3dcb569b	0.09928628
31	0x3ba3165d	0.004977031
32	0x3d2c0fb5	0.042007167
33	0x3cb42387	0.021989597
34	0x3dda496a	0.10658534
35	0x3e10abd2	0.14128044
36	0x3dc0bcc9	0.09411008
37	0x3d773ee7	0.060362723
38	0x3d44f0b4	0.048081115
39	0x3dae1627	0.08500319
40	0x3cbf05ac	0.023318134
41	0x3e00d5d7	0.12581573
42	0x3d9fae51	0.0779692
43	0x3d1b50c2	0.037918814
44	0xbdddab04	-0.10823634
45	0x3c07a0e4	0.008278105
46	0x3de2ba60	0.110707045
47	0x3b8a3c3f	0.0042186077
48	0xbd9dffe4	-0.07714823
49	0x3ddda39e	0.10822223
50	0x3cc6eba8	0.024282292
51	0x3cd54949	0.026035922
52	0xbc83997a	-0.016064394
53	0x3d611637	0.054952826
54	0x3d551487	0.05202153
55	0xbcd987a2	-0.026553933
56	0x3caf8465	0.021425435
57	0x3cacc9b9	0.021092283
58	0x3dd4d176	0.10391514
59	0xbd0fbf4d	-0.035094548
60	0xbcef1741	-0.029185893
61	0xbc793148	-0.0152095035
62	0xbe063d1a	-0.13109246
63	0xbddba336	-0.107244894

model.6.weight f4 [2, 64]
0	0xbdc53171	-0.09628571
1	0xbcf230ec	-0.029564343
2	0x3dcfcffb	0.10147091
3	0x3e5d312e	0.21600792
4	0xbe3d3356	-0.18476614
5	0xbdf9a085	-0.1218882
6	0xbda06252	-0.07831253
7	0xbd0d421b	-0.03448687
8	0x3e279804	0.16366583
9	0xbc80c412	-0.015718494
10	0x3e2bbdb4	0.16771585
11	0x3cd49d08	0.025953785
12	0xbe2b0ce4	-0.16704136
13	0x3dd16d73	0.10225954
14	0x3d0d2560	0.03445947
15	0x3c8b06cd	0.016971016
16	0xbdd2c458	-0.10291356
17	0xbdedc912	-0.11610617
18	0xbd5a456c	-0.053288862
19	0xbdb6775a	-0.08909483
20	0x3ca8b77c	0.020595305
21	0xbd9546ed	-0.07288919
22	0x3cfcb447	0.030847682
23	0x3d14e366	0.036349677
24	0xbcf8a33f	-0.03035128
25	0x3d855226	0.06509809
26	0x3d96b27e	0.073582634
27	0xbcc21fa4	-0.023696728
28	0x3d2d1bc7	0.04226282
29	0x3e08dd51	0.13365676
30	0x3c0975f0	0.008389935
31	0xbdbcac6d	-0.09212575
32	0x3dbe45e5	0.09290675
33	0x3e23403c	0.15942472
34	0x3d654242	0.05597139
35	0xbd8fda80	-0.070240974
36	0xbdb49ac6	-0.08818583
37	0xbcc26281	-0.023728611
38	0x3df71ed6	0.12066428
39	0xbde810d9	-0.113313384
40	0x3e27192e	0.16318199
41	0xbe0e539f	-0.13899086
42	0x3dfd62b9	0.123723455
43	0xbe2dd952	-0.16977432
44	0xbdeac5ec	-0.11463532
45	0x3d98c956	0.07460277
46	0x3e0bd961	0.13657142
47	0x3d48bfab	0.049010914
48	0xbdeb98a6	-0.11503725
49	0x3e27bc38	0.16380394
50	0x3da3cfe6	0.07998638
51	0xbdb5da43	-0.08879521
52	0x3b23f195	0.002501582
53	0x3d4cfcd5	0.050045807
54	0xbdec3d6d	-0.115351535
55	0x3ce08029	0.027404862
56	0xbc51e079	-0.012809866
57	0x3dfa51fa	0.12222667
58	0x3d62cb2b	0.055369537
59	0xbdc00278	-0.09375471
60	0xbe01a066	-0.12658843
61	0xbd3aeb44	-0.045634523
62	0xbddb74b9	-0.107156225
63	0x3cf91636	0.030406099
64	0xbda683b0	-0.08130586
65	0xbe2842ee	-0.16431782
66	0xbd1bc0b4	-0.038025573
67	0xbe4639ab	-0.19357936
68	0x3dedca8e	0.116109
69	0x3e117002	0.14202884
70	0xbd9ac9fa	-0.07558055
71	0x3ddfe763	0.109328054
72	0x3d63eeb4	0.055647567
73	0xbe156ae9	-0.14591564
74	0xbc426a7a	-0.011866206
75	0x3e2077aa	0.15670648
76	0x3c30e430	0.010796592
77	0xbdc2cd9e	-0.095118746
78	0x3cff2386	0.031144869
79	0x3df2545f	0.11832499
80	0x3da470ae	0.080293044
81	0x3b1644f6	0.0022929288
82	0x3dd54744	0.104139835
83	0xbde02b7c	-0.10945794
84	0xbd87005c	-0.065918654
85	0x3d7aac99	0.06119976
86	0x3e1b3327	0.15156232
87	0x3d488971	0.0489592
88	0x3de8aa55	0.11360613
89	0xbde0e682	-0.10981466
90	0xbd4da543	-0.050206434
91	0x3d805407	0.06266027
92	0xbd9b891d	-0.07594512
93	0xbda8c6e5	-0.08241061
94	0xbdae6069	-0.085144825
95	0x3d69545f	0.05696523
96	0x3dde2c4b	0.10848292
97	0xbd8b61aa	-0.06805737
98	0xbe645add	-0.22300287
99	0x3dfebea2	0.12438704
100	0x3d8af842	0.06785633
101	0x3e1b1073	0.15142994
102	0x3bb2c0ec	0.005455127
103	0x3dcde7b9	0.10053963
104	0xbc1efc73	-0.009703743
105	0x3ddb93cf	0.107215516
106	0x3d0e5ec1	0.034758333
107	0x3dd709c6	0.10499911
108	0x3c7b1c49	0.015326568
109	0x3da222b7	0.079167776
110	0xbd382b00	-0.044962883
111	0x3da13fe2	0.07873513
112	0x3d0fb3aa	0.03508345
113	0xbe0a38cb	-0.13498227
114	0x3d86de24	0.06585339
115	0xbd5654ef	-0.052327093
116	0xbdae91ff	-0.0852394
117	0xbe0aea54	-0.13565952
118	0x3e096e14	0.13420898
119	0x3d9a85a4	0.07545021
120	0x3d7ed926	0.062218808
121	0xbe33f6e9	-0.17574657
122	0xbd6d428e	-0.0579248
123	0x3e24d503	0.16096883
124	0x3dc526a6	0.09626512
125	0x3dec7df9	0.11547465
126	0x3d8a58cd	0.06755219
127	0x3d86243a	0.065498784

model.6.bias f4 [2]
0	0xbd22a612	-0.03970916
1	0x3d46b259	0.04850993

exp_avg f4 [64, 4]
0	0x00000000	0.0
1	0x00000000	0.0
2	0x00000000	0.0
3	0x00000000	0.0
4	0x00000000	0.0
5	0x00000000	0.0
6	0x00000000	0.0
7	0x00000000	0.0
8	0x370fbd42	8.567529e-06
9	0x370730d5	8.057997e-06
10	0x00000000	0.0
11	0x00000000	0.0
12	0x00000000	0.0
13	0x00000000	0.0
14	0x00000000	0.0
15	0x00000000	0.0
16	0x36b35cbf	5.345413e-06
17	0xb78a21da	-1.6466645e-05
18	0x00000000	0.0
19	0x00000000	0.0
20	0xb68a7be2	-4.1271423e-06
21	0x37957b57	1.7819619e-05
22	0x00000000	0.0
23	0x00000000	0.0
24	0x00000000	0.0
25	0x00000000	0.0
26	0x00000000	0.0
27	0x00000000	0.0
28	0x00000000	0.0
29	0x00000000	0.0
30	0x00000000	0.0
31	0x00000000	0.0
32	0x37e699b7	2.7489716e-05
33	0x382a4adf	4.0600888e-05
34	0x00000000	0.0
35	0x00000000	0.0
36	0x00000000	0.0
37	0x00000000	0.0
38	0x00000000	0.0
39	0x00000000	0.0
40	0x381e8a77	3.779909e-05
41	0xb5cd2c78	-1.5286632e-06
42	0x00000000	0.0
43	0x00000000	0.0
44	0xb85d8614	-5.2815376e-05
45	0xb82c9270	-4.1144376e-05
46	0x00000000	0.0
47	0x00000000	0.0
48	0x00000000	0.0
49	0x00000000	0.0
50	0x00000000	0.0
51	0x00000000	0.0
52	0xb864ba48	-5.4532924e-05
53	0xb8322f1b	-4.2482377e-05
54	0x00000000	0.0
55	0x00000000	0.0
56	0x3711201d	8.65015e-06
57	0x35acc9d8	1.2873743e-06
58	0x00000000	0.0
59	0x00000000	0.0
60	0x37acf1da	2.0616619e-05
61	0xb7b8026e	-2.193564e-05
62	0x00000000	0.0
63	0x00000000	0.0
64	0x371f7ec9	9.506658e-06
65	0x370ae870	8.27956e-06
66	0x00000000	0.0
67	0x00000000	0.0
68	0x00000000	0.0
69	0x00000000	0.0
70	0x00000000	0.0
71	0x00000000	0.0
72	0x00000000	0.0
73	0x00000000	0.0
74	0x00000000	0.0
75	0x00000000	0.0
76	0x374bd078	1.2148281e-05
77	0x3645cd71	2.947487e-06
78	0x00000000	0.0
79	0x00000000	0.0
80	0x37afa428	2.0938067e-05
81	0x37f16fd4	2.8781513e-05
82	0x00000000	0.0
83	0x00000000	0.0
84	0x37f69746	2.9395927e-05
85	0x37f29af0	2.8920796e-05
86	0x00000000	0.0
87	0x00000000	0.0
88	0xb72a07ba	-1.0134589e-05
89	0x374568c4	1.1766508e-05
90	0x00000000	0.0
91	0x00000000	0.0
92	0x00000000	0.0
93	0x00000000	0.0
94	0x00000000	0.0
95	0x00000000	0.0
96	0x365aeaae	3.2621133e-06
97	0x35f226ae	1.8041662e-06
98	0x00000000	0.0
99	0x00000000	0.0
100	0x376ca831	1.4105856e-05
101	0xb73656ee	-1.0868285e-05
102	0x00000000	0.0
103	0x00000000	0.0
104	0x00000000	0.0
105	0x00000000	0.0
106	0x00000000	0.0
107	0x00000000	0.0
108	0x377167af	1.438886e-05
109	0x3695ecb2	4.468101e-06
110	0x00000000	0.0
111	0x00000000	0.0
112	0x00000000	0.0
113	0x00000000	0.0
114	0x00000000	0.0
115	0x00000000	0.0
116	0x00000000	0.0
117	0x00000000	0.0
118	0x00000000	0.0
119	0x00000000	0.0
120	0x00000000	0.0
121	0x00000000	0.0
122	0x00000000	0.0
123	0x00000000	0.0
124	0x37290ba6	1.0075897e-05
125	0x37294e34	1.0091393e-05
126	0x00000000	0.0
127	0x00000000	0.0
128	0x381bb7ed	3.7126174e-05
129	0x384442ee	4.6792375e-05
130	0x00000000	0.0
131	0x00000000	0.0
132	0x00000000	0.0
133	0x00000000	0.0
134	0x00000000	0.0
135	0x00000000	0.0
136	0x00000000	0.0
137	0x00000000	0.0
138	0x00000000	0.0
139	0x00000000	0.0
140	0x373e41a1	1.1340163e-05
141	0x3774afca	1.4584462e-05
142	0x00000000	0.0
143	0x00000000	0.0
144	0x369d4780	4.6872883e-06
145	0xb5eda45c	-1.7705711e-06
146	0x00000000	0.0
147	0x00000000	0.0
148	0x00000000	0.0
149	0x00000000	0.0
150	0x00000000	0.0
151	0x00000000	0.0
152	0x37f2dd66	2.8951745e-05
153	0x3581b765	9.664624e-07
154	0x00000000	0.0
155	0x00000000	0.0
156	0x35b6abe8	1.3610088e-06
157	0x3799f07c	1.8351006e-05
158	0x00000000	0.0
159	0x00000000	0.0
160	0x00000000	0.0
161	0x00000000	0.0
162	0x00000000	0.0
163	0x00000000	0.0
164	0x380c80dd	3.3498614e-05
165	0x38297c45	4.0408475e-05
166	0x00000000	0.0
167	0x00000000	0.0
168	0x00000000	0.0
169	0x00000000	0.0
170	0x00000000	0.0
171	0x00000000	0.0
172	0x00000000	0.0
173	0x00000000	0.0
174	0x00000000	0.0
175	0x00000000	0.0
176	0x376b6357	1.4030221e-05
177	0x379a80d7	1.8418226e-05
178	0x00000000	0.0
179	0x00000000	0.0
180	0x37fbd7d7	3.002204e-05
181	0x381f6cc6	3.8009857e-05
182	0x00000000	0.0
183	0x00000000	0.0
184	0x37a24aa2	1.9346659e-05
185	0xb4b81886	-3.4290514e-07
186	0x00000000	0.0
187	0x00000000	0.0
188	0x00000000	0.0
189	0x00000000	0.0
190	0x00000000	0.0
191	0x00000000	0.0
192	0x3758f620	1.2931909e-05
193	0x37826557	1.5544398e-05
194	0x00000000	0.0
195	0x00000000	0.0
196	0x00000000	0.0
197	0x00000000	0.0
198	0x00000000	0.0
199	0x00000000	0.0
200	0x00000000	0.0
201	0x00000000	0.0
202	0x00000000	0.0
203	0x00000000	0.0
204	0x00000000	0.0
205	0x00000000	0.0
206	0x00000000	0.0
207	0x00000000	0.0
208	0x37b6ff54	2.1814987e-05
209	0xb66d99cb	-3.5405271e-06
210	0x00000000	0.0
211	0x00000000	0.0
212	0x00000000	0.0
213	0x00000000	0.0
214	0x00000000	0.0
215	0x00000000	0.0
216	0x377214ad	1.4429138e-05
217	0xb6731ae6	-3.6225479e-06
218	0x00000000	0.0
219	0x00000000	0.0
220	0x376ac985	1.3994407e-05
221	0x360dcbdb	2.1129297e-06
222	0x00000000	0.0
223	0x00000000	0.0
224	0x00000000	0.0
225	0x00000000	0.0
226	0x00000000	0.0
227	0x00000000	0.0
228	0x00000000	0.0
229	0x00000000	0.0
230	0x00000000	0.0
231	0x00000000	0.0
232	0x00000000	0.0
233	0x00000000	0.0
234	0x00000000	0.0
235	0x00000000	0.0
236	0xb7b4002b	-2.145775e-05
237	0xb78c397e	-1.6716072e-05
238	0x00000000	0.0
239	0x00000000	0.0
240	0x00000000	0.0
241	0x00000000	0.0
242	0x00000000	0.0
243	0x00000000	0.0
244	0x00000000	0.0
245	0x00000000	0.0
246	0x00000000	0.0
247	0x00000000	0.0
248	0x00000000	0.0
249	0x00000000	0.0
250	0x00000000	0.0
251	0x00000000	0.0
252	0x37c41be8	2.3378016e-05
253	0x363f0e39	2.8469497e-06
254	0x00000000	0.0
255	0x00000000	0.0

exp_avg_sq f4 [64, 4]
0	0x00000000	0.0
1	0x00000000	0.0
2	0x00000000	0.0
3	0x00000000	0.0
4	0x00000000	0.0
5	0x00000000	0.0
6	0x00000000	0.0
7	0x00000000	0.0
8	0x31af60cf	5.104176e-09
9	0x3252e4a2	1.2275594e-08
10	0x00000000	0.0
11	0x00000000	0.0
12	0x00000000	0.0
13	0x00000000	0.0
14	0x00000000	0.0
15	0x00000000	0.0
16	0x33112652	3.3795295e-08
17	0x32d427a6	2.4698078e-08
18	0x00000000	0.0
19	0x00000000	0.0
20	0x3383aa89	6.131183e-08
21	0x32087570	7.942944e-09
22	0x00000000	0.0
23	0x00000000	0.0
24	0x00000000	0.0
25	0x00000000	0.0
26	0x00000000	0.0
27	0x00000000	0.0
28	0x00000000	0.0
29	0x00000000	0.0
30	0x00000000	0.0
31	0x00000000	0.0
32	0x33606d36	5.225339e-08
33	0x33e8353f	1.0813027e-07
34	0x00000000	0.0
35	0x00000000	0.0
36	0x00000000	0.0
37	0x00000000	0.0
38	0x00000000	0.0
39	0x00000000	0.0
40	0x32ae35b3	2.0280686e-08
41	0x338cffd6	6.565794e-08
42	0x00000000	0.0
43	0x00000000	0.0
44	0x35ee7483	1.7766291e-06
45	0x3590b689	1.0781961e-06
46	0x00000000	0.0
47	0x00000000	0.0
48	0x00000000	0.0
49	0x00000000	0.0
50	0x00000000	0.0
51	0x00000000	0.0
52	0x3511033c	5.4021416e-07
53	0x34b0023b	3.2784178e-07
54	0x00000000	0.0
55	0x00000000	0.0
56	0x31f938dd	7.2533184e-09
57	0x3284261a	1.5384149e-08
58	0x00000000	0.0
59	0x00000000	0.0
60	0x34652e47	2.1344123e-07
61	0x343f8461	1.783642e-07
62	0x00000000	0.0
63	0x00000000	0.0
64	0x315c298b	3.2037828e-09
65	0x31350404	2.634125e-09
66	0x00000000	0.0
67	0x00000000	0.0
68	0x00000000	0.0
69	0x00000000	0.0
70	0x00000000	0.0
71	0x00000000	0.0
72	0x00000000	0.0
73	0x00000000	0.0
74	0x00000000	0.0
75	0x00000000	0.0
76	0x3156c7a3	3.125458e-09
77	0x321a57ab	8.983913e-09
78	0x00000000	0.0
79	0x00000000	0.0
80	0x3337cf6b	4.2796653e-08
81	0x32c19c68	2.2539282e-08
82	0x00000000	0.0
83	0x00000000	0.0
84	0x32e48586	2.6603413e-08
85	0x33d604d9	9.966033e-08
86	0x00000000	0.0
87	0x00000000	0.0
88	0x343199cb	1.6540359e-07
89	0x331a4ddb	3.592673e-08
90	0x00000000	0.0
91	0x00000000	0.0
92	0x00000000	0.0
93	0x00000000	0.0
94	0x00000000	0.0
95	0x00000000	0.0
96	0x333f443a	4.4532705e-08
97	0x32f5fcac	2.8636656e-08
98	0x00000000	0.0
99	0x00000000	0.0
100	0x3317cae5	3.534196e-08
101	0x333a2011	4.3335664e-08
102	0x00000000	0.0
103	0x00000000	0.0
104	0x00000000	0.0
105	0x00000000	0.0
106	0x00000000	0.0
107	0x00000000	0.0
108	0x325dfd4a	1.2921484e-08
109	0x330b98cc	3.2502427e-08
110	0x00000000	0.0
111	0x00000000	0.0
112	0x00000000	0.0
113	0x00000000	0.0
114	0x00000000	0.0
115	0x00000000	0.0
116	0x00000000	0.0
117	0x00000000	0.0
118	0x00000000	0.0
119	0x00000000	0.0
120	0x00000000	0.0
121	0x00000000	0.0
122	0x00000000	0.0
123	0x00000000	0.0
124	0x321b2223	9.029949e-09
125	0x328b5823	1.622181e-08
126	0x00000000	0.0
127	0x00000000	0.0
128	0x32e4d172	2.6637938e-08
129	0x34229453	1.5141386e-07
130	0x00000000	0.0
131	0x00000000	0.0
132	0x00000000	0.0
133	0x00000000	0.0
134	0x00000000	0.0
135	0x00000000	0.0
136	0x00000000	0.0
137	0x00000000	0.0
138	0x00000000	0.0
139	0x00000000	0.0
140	0x31f57bfd	7.1445343e-09
141	0x332ea7f8	4.06653e-08
142	0x00000000	0.0
143	0x00000000	0.0
144	0x3179078e	3.6238563e-09
145	0x30e2fd45	1.6515648e-09
146	0x00000000	0.0
147	0x00000000	0.0
148	0x00000000	0.0
149	0x00000000	0.0
150	0x00000000	0.0
151	0x00000000	0.0
152	0x32bcfe33	2.2001677e-08
153	0x33fd3b7b	1.179205e-07
154	0x00000000	0.0
155	0x00000000	0.0
156	0x3200fc6f	7.507977e-09
157	0x32bbda92	2.186906e-08
158	0x00000000	0.0
159	0x00000000	0.0
160	0x00000000	0.0
161	0x00000000	0.0
162	0x00000000	0.0
163	0x00000000	0.0
164	0x32a40310	1.9093505e-08
165	0x3382a81e	6.084177e-08
166	0x00000000	0.0
167	0x00000000	0.0
168	0x00000000	0.0
169	0x00000000	0.0
170	0x00000000	0.0
171	0x00000000	0.0
172	0x00000000	0.0
173	0x00000000	0.0
174	0x00000000	0.0
175	0x00000000	0.0
176	0x3272c49e	1.41309595e-08
177	0x337c9d24	5.881624e-08
178	0x00000000	0.0
179	0x00000000	0.0
180	0x33160f46	3.4938488e-08
181	0x340f8451	1.3366049e-07
182	0x00000000	0.0
183	0x00000000	0.0
184	0x32c54c3f	2.2968491e-08
185	0x32929c80	1.7067805e-08
186	0x00000000	0.0
187	0x00000000	0.0
188	0x00000000	0.0
189	0x00000000	0.0
190	0x00000000	0.0
191	0x00000000	0.0
192	0x329e860d	1.845458e-08
193	0x338bccee	6.5099684e-08
194	0x00000000	0.0
195	0x00000000	0.0
196	0x00000000	0.0
197	0x00000000	0.0
198	0x00000000	0.0
199	0x00000000	0.0
200	0x00000000	0.0
201	0x00000000	0.0
202	0x00000000	0.0
203	0x00000000	0.0
204	0x00000000	0.0
205	0x00000000	0.0
206	0x00000000	0.0
207	0x00000000	0.0
208	0x323fa510	1.1155194e-08
209	0x32c1de8a	2.2569356e-08
210	0x00000000	0.0
211	0x00000000	0.0
212	0x00000000	0.0
213	0x00000000	0.0
214	0x00000000	0.0
215	0x00000000	0.0
216	0x334c83a9	4.7617196e-08
217	0x3355be48	4.9765987e-08
218	0x00000000	0.0
219	0x00000000	0.0
220	0x32cf4c7e	2.4132756e-08
221	0x31f6df90	7.1849584e-09
222	0x00000000	0.0
223	0x00000000	0.0
224	0x00000000	0.0
225	0x00000000	0.0
226	0x00000000	0.0
227	0x00000000	0.0
228	0x00000000	0.0
229	0x00000000	0.0
230	0x00000000	0.0
231	0x00000000	0.0
232	0x00000000	0.0
233	0x00000000	0.0
234	0x00000000	0.0
235	0x00000000	0.0
236	0x33926b33	6.818154e-08
237	0x3331b744	4.1377703e-08
238	0x00000000	0.0
239	0x00000000	0.0
240	0x00000000	0.0
241	0x00000000	0.0
242	0x00000000	0.0
243	0x00000000	0.0
244	0x00000000	0.0
245	0x00000000	0.0
246	0x00000000	0.0
247	0x00000000	0.0
248	0x00000000	0.0
249	0x00000000	0.0
250	0x00000000	0.0
251	0x00000000	0.0
252	0x325aadbb	1.2728772e-08
253	0x33d5d009	9.956427e-08
254	0x00000000	0.0
255	0x00000000	0.0

exp_avg f4 [64]
0	0x00000000	0.0
1	0x00000000	0.0
2	0x354d0017	7.636858e-07
3	0x00000000	0.0
4	0x34fbc106	4.6892836e-07
5	0xb4c16a22	-3.6026273e-07
6	0x00000000	0.0
7	0x00000000	0.0
8	0x3624c9c8	2.4555357e-06
9	0x00000000	0.0
10	0x36613c95	3.3562876e-06
11	0xb69dde1c	-4.7048215e-06
12	0x00000000	0.0
13	0xb6a3005f	-4.8578218e-06
14	0x354e54f0	7.686458e-07
15	0x35f4b4a0	1.8231985e-06
16	0x356368b9	8.471648e-07
17	0x00000000	0.0
18	0x00000000	0.0
19	0x3590f0a4	1.0798872e-06
20	0x35faed59	1.8695529e-06
21	0x362fdf9b	2.6207188e-06
22	0xb5707d27	-8.958909e-07
23	0x00000000	0.0
24	0x349bdeee	2.9033203e-07
25	0x35a79f4c	1.2488831e-06
26	0x00000000	0.0
27	0x35abb7dc	1.2794003e-06
28	0x00000000	0.0
29	0x00000000	0.0
30	0x00000000	0.0
31	0x35712660	8.983534e-07
32	0x365e5d64	3.3134938e-06
33	0x00000000	0.0
34	0x00000000	0.0
35	0x3587db29	1.0122068e-06
36	0x34df2576	4.1564243e-07
37	0x00000000	0.0
38	0x362c914d	2.5714573e-06
39	0x3408b2e3	1.2731066e-07
40	0x00000000	0.0
41	0x36489857	2.9890996e-06
42	0x00000000	0.0
43	0x00000000	0.0
44	0x35a819d1	1.2524489e-06
45	0x3633d1af	2.679513e-06
46	0x35e695f6	1.717998e-06
47	0x00000000	0.0
48	0x359adfc5	1.153902e-06
49	0x00000000	0.0
50	0x00000000	0.0
51	0x00000000	0.0
52	0x3601ed9a	1.93608e-06
53	0x00000000	0.0
54	0x35abd128	1.2801365e-06
55	0x35a6e7d3	1.2435434e-06
56	0x00000000	0.0
57	0x00000000	0.0
58	0x00000000	0.0
59	0xb60046c4	-1.9114677e-06
60	0x00000000	0.0
61	0x00000000	0.0
62	0x00000000	0.0
63	0x360b64d6	2.0771308e-06

exp_avg_sq f4 [64]
0	0x00000000	0.0
1	0x00000000	0.0
2	0x2e319211	4.0374874e-11
3	0x00000000	0.0
4	0x2f927588	2.6640756e-10
5	0x30054a1a	4.8490423e-10
6	0x00000000	0.0
7	0x00000000	0.0
8	0x2fe0da54	4.0900494e-10
9	0x00000000	0.0
10	0x2f2e98bf	1.5879474e-10
11	0x3272345c	1.4098159e-08
12	0x00000000	0.0
13	0x31934aed	4.286781e-09
14	0x2e7c3531	5.734541e-11
15	0x30e86d91	1.6911362e-09
16	0x2ddeaa7d	2.531419e-11
17	0x00000000	0.0
18	0x00000000	0.0
19	0x2dda9304	2.4849019e-11
20	0x2fb919d5	3.366966e-10
21	0x2f6501ac	2.0828023e-10
22	0x30b3c522	1.3079993e-09
23	0x00000000	0.0
24	0x2fc2181a	3.530552e-10
25	0x2f99d848	2.7984215e-10
26	0x00000000	0.0
27	0x2ede80ad	1.01182486e-10
28	0x00000000	0.0
29	0x00000000	0.0
30	0x00000000	0.0
31	0x2e9ba7eb	7.078412e-11
32	0x2f657dd6	2.0872135e-10
33	0x00000000	0.0
34	0x00000000	0.0
35	0x2e7955b8	5.669218e-11
36	0x2dfc9239	2.8714019e-11
37	0x00000000	0.0
38	0x2f3d08b9	1.7192549e-10
39	0x2e81937e	5.892441e-11
40	0x00000000	0.0
41	0x2f2596a3	1.506018e-10
42	0x00000000	0.0
43	0x00000000	0.0
44	0x2ef43da2	1.11067835e-10
45	0x2f963d9b	2.7328614e-10
46	0x2f4673d5	1.8049147e-10
47	0x00000000	0.0
48	0x2f1e895b	1.4418815e-10
49	0x00000000	0.0
50	0x00000000	0.0
51	0x00000000	0.0
52	0x2ec0dfbd	8.770893e-11
53	0x00000000	0.0
54	0x2fcfa8dd	3.7773065e-10
55	0x2f51b738	1.9073532e-10
56	0x00000000	0.0
57	0x00000000	0.0
58	0x00000000	0.0
59	0x3014b88b	5.410434e-10
60	0x00000000	0.0
61	0x00000000	0.0
62	0x00000000	0.0
63	0x2ee02a63	1.019387e-10

exp_avg f4 [64, 64]
0	0x00000000	0.0
1	0x00000000	0.0
2	0xb586a8c4	-1.0032895e-06
3	0x00000000	0.0
4	0x35dbc4e3	1.6374073e-06
5	0xb53dc200	-7.0690294e-07
6	0x00000000	0.0
7	0x00000000	0.0
8	0xb5916249	-1.0831947e-06
9	0x00000000	0.0
10	0x35eeec19	1.7801095e-06
11	0x35e70e74	1.7215048e-06
12	0x00000000	0.0
13	0x35950add	1.1104527e-06
14	0x34db49bf	4.0845586e-07
15	0x351910df	5.702149e-07
16	0xb494b616	-2.7699633e-07
17	0x00000000	0.0
18	0x00000000	0.0
19	0x35f54cf8	1.8276323e-06
20	0xb4cc701b	-3.8079529e-07
21	0xb508c90c	-5.095651e-07
22	0xb5a49a35	-1.2263832e-06
23	0x00000000	0.0
24	0x359650c6	1.1199379e-06
25	0x35061503	4.9949466e-07
26	0x00000000	0.0
27	0x35c5e0af	1.4743035e-06
28	0x00000000	0.0
29	0x00000000	0.0
30	0x00000000	0.0
31	0x35a5e937	1.2361332e-06
32	0xb5991c8c	-1.1407697e-06
33	0x00000000	0.0
34	0x00000000	0.0
35	0xb3abdaac	-8.002584e-08
36	0x353985c2	6.9112514e-07
37	0x00000000	0.0
38	0x363cea11	2.8150428e-06
39	0xb5459cc7	-7.361636e-07
40	0x00000000	0.0
41	0xb585b7c4	-9.962755e-07
42	0x00000000	0.0
43	0x00000000	0.0
44	0x3445bc31	1.8415518e-07
45	0xb59badb9	-1.159896e-06
46	0x369a07c9	4.590464e-06
47	0x00000000	0.0
48	0xb4b8fe85	-3.4457858e-07
49	0x00000000	0.0
50	0x00000000	0.0
51	0x00000000	0.0
52	0x35baa46a	1.3905931e-06
53	0x00000000	0.0
54	0x35ecc699	1.764117e-06
55	0x363688f3	2.7199828e-06
56	0x00000000	0.0
57	0x00000000	0.0
58	0x00000000	0.0
59	0x3455cc3e	1.9911474e-07
60	0x00000000	0.0
61	0x00000000	0.0
62	0x00000000	0.0
63	0x364d3669	3.0579051e-06
64	0x00000000	0.0
65	0x00000000	0.0
66	0xb5e12188	-1.6773565e-06
67	0x00000000	0.0
68	0xb628d8d6	-2.5160166e-06
69	0x35241378	6.112309e-07
70	0x00000000	0.0
71	0x00000000	0.0
72	0xb381863e	-6.031449e-08
73	0x00000000	0.0
74	0xb492e054	-2.735784e-07
75	0xb63a5876	-2.776765e-06
76	0x00000000	0.0
77	0xb5de7a98	-1.6575968e-06
78	0xb53b8f5a	-6.987153e-07
79	0xb5620fe9	-8.4214713e-07
80	0xb61ac47a	-2.3062153e-06
81	0x00000000	0.0
82	0x00000000	0.0
83	0xb6058fa9	-1.9902166e-06
84	0x34faf375	4.6743267e-07
85	0xb6632130	-3.3844954e-06
86	0x35bbbcdd	1.3987552e-06
87	0x00000000	0.0
88	0xb6486fa4	-2.9867306e-06
89	0xb569d3b9	-8.710736e-07
90	0x00000000	0.0
91	0xb65eb801	-3.3187682e-06
92	0x00000000	0.0
93	0x00000000	0.0
94	0x00000000	0.0
95	0xb6cc9b49	-6.0977513e-06
96	0x340fe312	1.340052e-07
97	0x00000000	0.0
98	0x00000000	0.0
99	0xb63dbd64	-2.8273435e-06
100	0x343b1ce8	1.7426248e-07
101	0x00000000	0.0
102	0x35f223d5	1.8040834e-06
103	0x345fa320	2.0827838e-07
104	0x00000000	0.0
105	0x34016a18	1.2052658e-07
106	0x00000000	0.0
107	0x00000000	0.0
108	0xb5926c61	-1.090939e-06
109	0x354c171c	7.602955e-07
110	0x36a4029d	4.887885e-06
111	0x00000000	0.0
112	0xb5f3c684	-1.8162687e-06
113	0x00000000	0.0
114	0x00000000	0.0
115	0x00000000	0.0
116	0xb54e7751	-7.691461e-07
117	0x00000000	0.0
118	0x35514ca8	7.7970117e-07
119	0xb515c863	-5.5798427e-07
120	0x00000000	0.0
121	0x00000000	0.0
122	0x00000000	0.0
123	0xb4accba2	-3.218566e-07
124	0x00000000	0.0
125	0x00000000	0.0
126	0x00000000	0.0
127	0x3632ec96	2.6661778e-06
128	0x00000000	0.0
129	0x00000000	0.0
130	0xb494e0e9	-2.7730792e-07
131	0x00000000	0.0
132	0xb3d93e5d	-1.0116194e-07
133	0x332c4c04	4.0116007e-08
134	0x00000000	0.0
135	0x00000000	0.0
136	0x32afbb41	2.0457835e-08
137	0x00000000	0.0
138	0xb3018fc2	-3.01659e-08
139	0xb3ed5b1d	-1.1052746e-07
140	0x00000000	0.0
141	0xb3cabee4	-9.441081e-08
142	0xb38f89f4	-6.68405e-08
143	0xb370cc50	-5.6065176e-08
144	0xb401a266	-1.2073141e-07
145	0x00000000	0.0
146	0x00000000	0.0
147	0xb4da18cc	-4.0623706e-07
148	0xb4057f96	-1.2433006e-07
149	0xb1f77d00	-7.202857e-09
150	0x3384074c	6.148056e-08
151	0x00000000	0.0
152	0xb4e6f02d	-4.301559e-07
153	0xb36ade5a	-5.4684598e-08
154	0x00000000	0.0
155	0xb39546a5	-6.951203e-08
156	0x00000000	0.0
157	0x00000000	0.0
158	0x00000000	0.0
159	0x342a53fe	1.586304e-07
160	0x3200507a	7.468879e-09
161	0x00000000	0.0
162	0x00000000	0.0
163	0xb3f9ddb8	-1.16352965e-07
164	0xb3a7af84	-7.8084696e-08
165	0x00000000	0.0
166	0xb2f6d258	-2.8733822e-08
167	0x330ee686	3.327161e-08
168	0x00000000	0.0
169	0xb413259e	-1.3704127e-07
170	0x00000000	0.0
171	0x00000000	0.0
172	0xb2ea60f0	-2.7285267e-08
173	0x33285968	3.9196863e-08
174	0xb49aee56	-2.8858148e-07
175	0x00000000	0.0
176	0xb466d242	-2.149691e-07
177	0x00000000	0.0
178	0x00000000	0.0
179	0x00000000	0.0
180	0xb45a9eeb	-2.0360646e-07
181	0x00000000	0.0
182	0xb4b158b2	-3.3033353e-07
183	0xb46ce61c	-2.2062926e-07
184	0x00000000	0.0
185	0x00000000	0.0
186	0x00000000	0.0
187	0xb2f31885	-2.8300073e-08
188	0x00000000	0.0
189	0x00000000	0.0
190	0x00000000	0.0
191	0xb4848820	-2.468596e-07
192	0x00000000	0.0
193	0x00000000	0.0
194	0x36336637	2.6732575e-06
195	0x00000000	0.0
196	0xb680020e	-3.8149365e-06
197	0x367908a6	3.7108925e-06
198	0x00000000	0.0
199	0x00000000	0.0
200	0x36312f83	2.640271e-06
201	0x00000000	0.0
202	0x35807564	9.570908e-07
203	0xb637e974	-2.7405013e-06
204	0x00000000	0.0
205	0xb60d97ae	-2.1098926e-06
206	0x35ae5560	1.2988858e-06
207	0xb5c67dd7	-1.4788774e-06
208	0x369a2696	4.5940496e-06
209	0x00000000	0.0
210	0x00000000	0.0
211	0x36d0ce94	6.222932e-06
212	0xb58ad0c0	-1.0342555e-06
213	0x363c1b9d	2.8030256e-06
214	0x36d8d90c	6.462569e-06
215	0x00000000	0.0
216	0x363be5ad	2.799886e-06
217	0xb579cd18	-9.305818e-07
218	0x00000000	0.0
219	0x368ea16a	4.250721e-06
220	0x00000000	0.0
221	0x00000000	0.0
222	0x00000000	0.0
223	0x36f81529	7.3934393e-06
224	0x3636643d	2.717846e-06
225	0x00000000	0.0
226	0x00000000	0.0
227	0x36f15082	7.191732e-06
228	0x35efca76	1.7865812e-06
229	0x00000000	0.0
230	0x36b78d4a	5.470273e-06
231	0x36a88ad3	5.0229514e-06
232	0x00000000	0.0
233	0x35feaeff	1.8975405e-06
234	0x00000000	0.0
235	0x00000000	0.0
236	0xb46dbae8	-2.2140341e-07
237	0x36dc6471	6.568204e-06
238	0x370c3592	8.357123e-06
239	0x00000000	0.0
240	0x369df5b3	4.7075678e-06
241	0x00000000	0.0
242	0x00000000	0.0
243	0x00000000	0.0
244	0xb3cffbc8	-9.6849874e-08
245	0x00000000	0.0
246	0x3706177e	7.992492e-06
247	0x364745da	2.969397e-06
248	0x00000000	0.0
249	0x00000000	0.0
250	0x00000000	0.0
251	0xb5410da7	-7.191797e-07
252	0x00000000	0.0
253	0x00000000	0.0
254	0x00000000	0.0
255	0x36bcd7f7	5.627978e-06

exp_avg_sq f4 [64, 64]
0	0x00000000	0.0
1	0x00000000	0.0
2	0x30919064	1.0591177e-09
3	0x00000000	0.0
4	0x2fa08e65	2.9205008e-10
5	0x2df15baf	2.7439244e-11
6	0x00000000	0.0
7	0x00000000	0.0
8	0x2fa42007	2.9854183e-10
9	0x00000000	0.0
10	0x2f23b594	1.4889273e-10
11	0x2f287a38	1.5322932e-10
12	0x00000000	0.0
13	0x2d1c4898	8.883692e-12
14	0x2f0c1383	1.2739858e-10
15	0x2d1c9dad	8.902584e-12
16	0x30b36ca8	1.3054846e-09
17	0x00000000	0.0
18	0x00000000	0.0
19	0x309da8af	1.1471196e-09
20	0x303c3cc2	6.8480344e-10
21	0x30e15a53	1.6396576e-09
22	0x2ff26263	4.4089452e-10
23	0x00000000	0.0
24	0x30bb0539	1.3607525e-09
25	0x2d95f0a3	1.7046203e-11
26	0x00000000	0.0
27	0x308881a3	9.932147e-10
28	0x00000000	0.0
29	0x00000000	0.0
30	0x00000000	0.0
31	0x3114595d	2.1587632e-09
32	0x309e4a32	1.1517101e-09
33	0x00000000	0.0
34	0x00000000	0.0
35	0x30dbb412	1.5985526e-09
36	0x2f991dc1	2.785168e-10
37	0x00000000	0.0
38	0x306b2c87	8.555578e-10
39	0x2ff284e5	4.411397e-10
40	0x00000000	0.0
41	0x3107baff	1.975138e-09
42	0x00000000	0.0
43	0x00000000	0.0
44	0x300d6e6f	5.1452437e-10
45	0x308c96b7	1.0229176e-09
46	0x31101999	2.0969309e-09
47	0x00000000	0.0
48	0x30518fa7	7.62379e-10
49	0x00000000	0.0
50	0x00000000	0.0
51	0x00000000	0.0
52	0x2f0e8267	1.2961153e-10
53	0x00000000	0.0
54	0x3094419f	1.0787068e-09
55	0x30818115	9.422673e-10
56	0x00000000	0.0
57	0x00000000	0.0
58	0x00000000	0.0
59	0x2ca1f443	4.6030137e-12
60	0x00000000	0.0
61	0x00000000	0.0
62	0x00000000	0.0
63	0x303935c1	6.7378997e-10
64	0x00000000	0.0
65	0x00000000	0.0
66	0x3022fbe9	5.929324e-10
67	0x00000000	0.0
68	0x3012562f	5.3236965e-10
69	0x2dcdde35	2.3404481e-11
70	0x00000000	0.0
71	0x00000000	0.0
72	0x2ed1c808	9.539752e-11
73	0x00000000	0.0
74	0x2fea3b59	4.260652e-10
75	0x2fb6dea8	3.3263814e-10
76	0x00000000	0.0
77	0x2e880d6d	6.186949e-11
78	0x2f2c27bb	1.5657424e-10
79	0x2e5075b8	4.739828e-11
80	0x3063fd62	8.29422e-10
81	0x00000000	0.0
82	0x00000000	0.0
83	0x30abdbd3	1.2504365e-09
84	0x2fa3a178	2.9764258e-10
85	0x3035eb69	6.6181954e-10
86	0x2f78491b	2.2581441e-10
87	0x00000000	0.0
88	0x30b4082b	1.3099045e-09
89	0x2e322c2d	4.051175e-11
90	0x00000000	0.0
91	0x30f1997a	1.7578679e-09
92	0x00000000	0.0
93	0x00000000	0.0
94	0x00000000	0.0
95	0x30dff1ca	1.6294106e-09
96	0x2fa5d7ee	3.0166752e-10
97	0x00000000	0.0
98	0x00000000	0.0
99	0x30687109	8.456174e-10
100	0x2fb823c1	3.349481e-10
101	0x00000000	0.0
102	0x30866e7b	9.781184e-10
103	0x2f117221	1.322822e-10
104	0x00000000	0.0
105	0x3013a5f8	5.3714144e-10
106	0x00000000	0.0
107	0x00000000	0.0
108	0x2fc9c90a	3.6704534e-10
109	0x2fb4f717	3.2917377e-10
110	0x311c756f	2.276774e-09
111	0x00000000	0.0
112	0x3002bbf4	4.756082e-10
113	0x00000000	0.0
114	0x00000000	0.0
115	0x00000000	0.0
116	0x2fab9217	3.1208522e-10
117	0x00000000	0.0
118	0x310db328	2.062004e-09
119	0x30a62911	1.2089761e-09
120	0x00000000	0.0
121	0x00000000	0.0
122	0x00000000	0.0
123	0x2b5feb27	7.9551854e-13
124	0x00000000	0.0
125	0x00000000	0.0
126	0x00000000	0.0
127	0x3089d3d6	1.0028269e-09
128	0x00000000	0.0
129	0x00000000	0.0
130	0x2d7d7d98	1.4409272e-11
131	0x00000000	0.0
132	0x2bf48cd6	1.7376333e-12
133	0x29fef8ad	1.1323004e-13
134	0x00000000	0.0
135	0x00000000	0.0
136	0x2b8ec92e	1.0145545e-12
137	0x00000000	0.0
138	0x2c41f14f	2.7560903e-12
139	0x2b9b923b	1.1054e-12
140	0x00000000	0.0
141	0x2a8131d4	2.2949578e-13
142	0x2bcfa490	1.475391e-12
143	0x29e8239a	1.03090456e-13
144	0x2cba83ec	5.3010842e-12
145	0x00000000	0.0
146	0x00000000	0.0
147	0x2d38acc1	1.0497548e-11
148	0x2ce1f962	6.4225717e-12
149	0x2d842df0	1.5027063e-11
150	0x2bdf3c50	1.5861843e-12
151	0x00000000	0.0
152	0x2d4ea467	1.1746249e-11
153	0x29dea19d	9.886816e-14
154	0x00000000	0.0
155	0x2da0c9d1	1.8279519e-11
156	0x00000000	0.0
157	0x00000000	0.0
158	0x00000000	0.0
159	0x2d48b7bc	1.1409481e-11
160	0x2cf7ce6b	7.0430792e-12
161	0x00000000	0.0
162	0x00000000	0.0
163	0x2d496f9c	1.14503095e-11
164	0x2c8a1235	3.9242173e-12
165	0x00000000	0.0
166	0x2d1ee2a2	9.031583e-12
167	0x2c358c01	2.5799365e-12
168	0x00000000	0.0
169	0x2cb78c35	5.216739e-12
170	0x00000000	0.0
171	0x00000000	0.0
172	0x2cdf91cf	6.354229e-12
173	0x2c9c51a3	4.44285e-12
174	0x2e23f93c	3.7283274e-11
175	0x00000000	0.0
176	0x2d29831f	9.6356525e-12
177	0x00000000	0.0
178	0x00000000	0.0
179	0x00000000	0.0
180	0x2c247e6b	2.3375978e-12
181	0x00000000	0.0
182	0x2dd380d5	2.4045136e-11
183	0x2d90c57b	1.6458604e-11
184	0x00000000	0.0
185	0x00000000	0.0
186	0x00000000	0.0
187	0x285f1d88	1.238539e-14
188	0x00000000	0.0
189	0x00000000	0.0
190	0x00000000	0.0
191	0x2d4c69c4	1.1619542e-11
192	0x00000000	0.0
193	0x00000000	0.0
194	0x2f797f83	2.269172e-10
195	0x00000000	0.0
196	0x2f860c1d	2.4383065e-10
197	0x2e676f16	5.2621983e-11
198	0x00000000	0.0
199	0x00000000	0.0
200	0x2e82fd30	5.956691e-11
201	0x00000000	0.0
202	0x2f192454	1.3928175e-10
203	0x2f81db42	2.3620755e-10
204	0x00000000	0.0
205	0x2e99f6a7	7.001449e-11
206	0x2e433ee8	4.439374e-11
207	0x2dfa2de0	2.8442082e-11
208	0x2f9da584	2.867574e-10
209	0x00000000	0.0
210	0x00000000	0.0
211	0x2fad92ea	3.1572905e-10
212	0x2f008cad	1.169151e-10
213	0x2faa5c1e	3.0988273e-10
214	0x2f3761a5	1.6678443e-10
215	0x00000000	0.0
216	0x2fbd63ce	3.4449815e-10
217	0x2dd60628	2.4331717e-11
218	0x00000000	0.0
219	0x2ff96120	4.5361848e-10
220	0x00000000	0.0
221	0x00000000	0.0
222	0x00000000	0.0
223	0x2fedeace	4.3276888e-10
224	0x2f2075a1	1.4593705e-10
225	0x00000000	0.0
226	0x00000000	0.0
227	0x2fc0c774	3.5066317e-10
228	0x2ee69cce	1.0487043e-10
229	0x00000000	0.0
230	0x2fac7e89	3.1376526e-10
231	0x2eb744ee	8.334121e-11
232	0x00000000	0.0
233	0x2f804694	2.3333213e-10
234	0x00000000	0.0
235	0x00000000	0.0
236	0x2f18551c	1.3854556e-10
237	0x2f47b70d	1.8163977e-10
238	0x30246c09	5.981638e-10
239	0x00000000	0.0
240	0x2f5b7147	1.9958178e-10
241	0x00000000	0.0
242	0x00000000	0.0
243	0x00000000	0.0
244	0x2eeb42c8	1.06984255e-10
245	0x00000000	0.0
246	0x2ffc31c0	4.5873882e-10
247	0x2fc58876	3.5931053e-10
248	0x00000000	0.0
249	0x00000000	0.0
250	0x00000000	0.0
251	0x2b9b1aa9	1.1020812e-12
252	0x00000000	0.0
253	0x00000000	0.0
254	0x00000000	0.0
255	0x2fa38865	2.9746441e-10

exp_avg f4 [64]
0	0x345dc2f7	2.0653157e-07
1	0x332316fc	3.79723e-08
2	0xb322eea3	-3.7935603e-08
3	0x3540af4f	7.178068e-07
4	0x35ea4030	1.745304e-06
5	0x356f1d03	8.9076656e-07
6	0x3423b9d3	1.524816e-07
7	0x34156c7b	1.3916171e-07
8	0xb4bf2f96	-3.5611146e-07
9	0x360f485c	2.135078e-06
10	0x35522b70	7.8294306e-07
11	0x347bb7d6	2.3443076e-07
12	0x359a4571	1.1494104e-06
13	0x3519e20c	5.7325883e-07
14	0x00c3e224	1.7989046e-38
15	0xb3f946bf	-1.1607835e-07
16	0x32afb10c	2.0453193e-08
17	0xb5129107	-5.460028e-07
18	0x33e88cd6	1.082896e-07
19	0xb528446c	-6.2684444e-07
20	0x33f3ef9a	1.13591526e-07
21	0x34b3cf1a	3.3492034e-07
22	0x32e34230	2.6456377e-08
23	0xb2e247b5	-2.6342471e-08
24	0x34ff1dc6	4.7519114e-07
25	0x3503b4b0	4.906424e-07
26	0x344ca7aa	1.9059976e-07
27	0xb3e65882	-1.0726309e-07
28	0x3531402e	6.603103e-07
29	0x355dbc38	8.260281e-07
30	0x35720eb3	9.0173415e-07
31	0xb2cc9a90	-2.3819013e-08
32	0x3298be56	1.7781684e-08
33	0x3501497e	4.816319e-07
34	0x34522bca	1.9573704e-07
35	0x3588518b	1.0156522e-06
36	0x34fd8453	4.72212e-07
37	0x33b0b344	8.228247e-08
38	0x351bef0e	5.808987e-07
39	0xb23b1f60	-1.0891966e-08
40	0x35975862	1.12761e-06
41	0x3533e4c0	6.701557e-07
42	0x3417b870	1.4130069e-07
43	0x35dd3cf8	1.6483527e-06
44	0x314d0ecc	2.9839837e-09
45	0xb410fba8	-1.3502597e-07
46	0x353bef9f	7.0011623e-07
47	0xb34bb1b0	-4.7426227e-08
48	0x33c6e71c	9.262132e-08
49	0x35813d35	9.629063e-07
50	0x00000000	0.0
51	0x340aee29	1.2938894e-07
52	0x355b61b1	8.172602e-07
53	0x343c61a0	1.754438e-07
54	0x358ddc9d	1.0569526e-06
55	0x31c8d0c0	5.844498e-09
56	0x32d4cbcf	2.477273e-08
57	0x34177972	1.4107152e-07
58	0xb37e40ca	-5.919791e-08
59	0x35143c30	5.522188e-07
60	0x3561cd64	8.4117914e-07
61	0x349803fa	2.83151e-07
62	0x33de3510	1.03473326e-07
63	0xa7db3763	-6.084476e-15

exp_avg_sq f4 [64]
0	0x2e7b59c0	5.7150507e-11
1	0x2e266f40	3.784284e-11
2	0x2b43ee59	6.960869e-13
3	0x2d309d93	1.003943e-11
4	0x312e4983	2.536212e-09
5	0x2f1e59dd	1.4401942e-10
6	0x2db363cf	2.0394268e-11
7	0x2ebc38eb	8.559361e-11
8	0x2de911ee	2.6496996e-11
9	0x2e9921d4	6.9636436e-11
10	0x2e66bc9b	5.246346e-11
11	0x2f39b3f4	1.6889584e-10
12	0x2eb65a4c	8.292442e-11
13	0x30036bb7	4.7810594e-10
14	0x25f31ba0	4.21725e-16
15	0x2d8e7431	1.619513e-11
16	0x2de64b9d	2.6181552e-11
17	0x2ebb42d3	8.515646e-11
18	0x2ecf093b	9.41491e-11
19	0x2e0567a0	3.0332736e-11
20	0x2f8cee23	2.5635058e-10
21	0x2e9a2905	7.010396e-11
22	0x2ee89801	1.057714e-10
23	0x2b0fc8f3	5.108268e-13
24	0x2dbe059c	2.160299e-11
25	0x2f2c70ee	1.568343e-10
26	0x2cdfc653	6.3600596e-12
27	0x2d48ad77	1.1407201e-11
28	0x2d315761	1.0080687e-11
29	0x2eaf5d25	7.9746244e-11
30	0x2d88f185	1.5568666e-11
31	0x2fd8e876	3.9455345e-10
32	0x2d679eae	1.3166064e-11
33	0x306fd43c	8.7249297e-10
34	0x2d0eda22	8.120201e-12
35	0x2f84e885	2.4175875e-10
36	0x2e9bbe75	7.082416e-11
37	0x2f4551bd	1.7946085e-10
38	0x2cfdc51a	7.212575e-12
39	0x2f02aeab	1.1885486e-10
40	0x2e46ecc4	4.5230278e-11
41	0x2f83a40f	2.3945332e-10
42	0x2cc90a50	5.7139085e-12
43	0x30b60573	1.3243792e-09
44	0x2c7c877d	3.5886565e-12
45	0x2d1374c9	8.381914e-12
46	0x2f25da36	1.5084187e-10
47	0x2d275d6f	9.513597e-12
48	0x2e4e9723	4.6973214e-11
49	0x2fff0941	4.6390805e-10
50	0x00000000	0.0
51	0x2ee78c59	1.05295946e-10
52	0x2d1675a9	8.552639e-12
53	0x2ec16196	8.7939586e-11
54	0x316ea50b	3.4727374e-09
55	0x2bc4431a	1.3945262e-12
56	0x2eae76f4	7.933734e-11
57	0x2b8fcc2d	1.0217431e-12
58	0x2d674286	1.3145601e-11
59	0x300aa07d	5.0432175e-10
60	0x30e10cc7	1.6374536e-09
61	0x2e27fafb	3.819432e-11
62	0x30aefe74	1.2732486e-09
63	0x277bc753	3.4941301e-15
