example/lightning_logs/version_16/checkpoints/epoch=249-step=500.ckpt (torch, 64346 bytes, 18 tensors)

model.0.weight f4 [64, 4]
000000 ea 62 eb 3e 41 65 de 3e 0c 02 8d bd c5 48 a6 be
       0.45973903 0.43436626 -0.06885156 -0.32477394
000010 45 7a bb 3e d7 59 d8 3e 02 0a c3 3e 67 3e 8b be
       0.36616722 0.42256042 0.38093573 -0.27196047
000020 23 89 cb bd cf 38 9d 3e d8 cb b7 bd cd 1c ab 3d
       -0.09938266 0.30707404 -0.08974427 0.08355103
000030 f0 4b 30 3e 68 cc 54 be d0 f6 cf 3e 43 70 3c be
       0.17216468 -0.207811 0.4061799 -0.184022
000040 e3 32 9c bd 3e 2c 65 3e 5e 35 c4 3b e5 4e d9 bd
       -0.07626893 0.22380158 0.005987807 -0.10610751
000050 e5 68 37 3e ea 4a c9 be 1a 4c b6 3e fb 05 df be
       0.17911108 -0.39314967 0.35604936 -0.4355925
000060 b0 f7 f1 bd 86 7c b0 be 0a 15 9f be e0 9a 83 3e
       -0.11814821 -0.34470004 -0.3107074 0.25704098
000070 40 34 42 bd f0 b0 73 bd f8 8f a0 be 00 8e e1 ba
       -0.04741311 -0.059494913 -0.3135984 -0.0017208457
000080 5b 06 0c 3e 58 a8 95 bc a5 a2 9f 3e d5 ea 79 be
       0.136743 -0.01826875 0.31178775 -0.24405988
000090 40 23 cd 3e a7 dd bb 3e fe 93 f3 3d 57 c7 0a be
       0.40065956 0.36692545 0.11893462 -0.13552605
0000a0 52 2f 4a be 5b ad e8 be df c1 c2 3e 74 65 f9 be
       -0.19744614 -0.4544476 0.38038537 -0.48710215
0000b0 f6 87 c7 be 96 25 a0 be e5 42 dc 3e 14 4a 41 3e
       -0.38970917 -0.31278676 0.43019786 0.18875915
0000c0 a4 9f 3a 3e 3a 7e a2 3e 56 3b cc be 2c 40 c9 be
       0.1822496 0.31736928 -0.3988902 -0.39306772
0000d0 50 81 3a be 7a 90 d1 3e 89 eb 38 3e a1 6f 20 be
       -0.18213391 0.4093054 0.180586 -0.15667583
0000e0 61 9c c5 bd 67 c2 c3 3e 73 93 b9 3e bd 9a e0 3e
       -0.096489675 0.38234255 0.36245307 0.43868056
0000f0 27 13 90 3e 0a 65 84 be 03 36 c1 3e f4 aa a6 3e
       0.28139612 -0.25858337 0.3773652 0.32552302
000100 26 69 80 be 0a 2a 82 be 5c e7 8f be b0 82 fd bd
       -0.25080222 -0.25422698 -0.281062 -0.12378442
000110 26 e9 ee 3e 80 24 5f 3d ae 88 eb be 40 05 8c bd
       0.46662253 0.05447817 -0.46002716 -0.06836939
000120 e2 84 e8 be 54 a7 0f be ec dd e9 be 80 8b 5a be
       -0.45413882 -0.14028674 -0.45677125 -0.21342278
000130 81 ca 21 3e 46 2a 3c be 30 4e 08 3e fb 01 9d 3e
       0.15799905 -0.18375501 0.13311076 0.30665573
000140 57 9b e9 3e 68 fe f5 3d d0 7a d7 3e 46 82 01 3f
       0.45626327 0.12011415 0.42085886 0.50589406
000150 06 5d cb be a4 2f 2a bd 2c 73 f9 3e 3e e5 9d 3d
       -0.3971941 -0.04154934 0.48720682 0.0770974
000160 9a 88 d6 3e d3 fb 76 3e 8b 22 80 3e 43 81 25 3e
       0.41901094 0.24119501 0.25026354 0.1616259
000170 80 cb fc 3d 98 6a 64 be 1c 3d ea be 20 06 93 bd
       0.12343502 -0.22306287 -0.45749748 -0.071789026
000180 ca bb 9b be de d6 c2 3e c6 22 c2 3e c0 6c 5e 3d
       -0.3041671 0.38054556 0.37917155 0.05430293
000190 74 c8 dd 3e b0 73 cc 3e 40 ba 39 be 28 65 97 3d
       0.43316996 0.39932013 -0.18137455 0.07392341
0001a0 03 30 c7 3e 49 4e a0 3e ac bd 9d 3e 0e 38 dc 3d
       0.38903818 0.31309727 0.3080877 0.10752879
0001b0 74 d4 3b 3e 8c ad 9f be 56 d6 ac be 18 c8 bf 3d
       0.18342763 -0.31187093 -0.33757275 0.09364337
0001c0 c0 32 a9 3e 17 0f 38 3e 5d 93 ff 3e 70 70 23 be
       0.33046532 0.17974506 0.49917117 -0.1596086
0001d0 46 a8 ae bd 1a fe e3 3e 39 72 18 3e 64 33 12 be
       -0.08528189 0.44529802 0.14887322 -0.14277416
0001e0 36 9d 80 3e 64 4a bb 3e ca 69 80 3e 9f c0 8b 3e
       0.25119942 0.36580193 0.2508071 0.27295396
0001f0 10 1c 9a 3e 40 9c 62 3e c4 15 ae be 14 e3 46 3e
       0.30099535 0.22129917 -0.3400098 0.19422561
000200 b5 de d8 be a3 fc c3 be a5 92 53 3e d4 c6 2d 3e
       -0.42357412 -0.38278684 0.20661409 0.16970378
000210 de 02 eb be 90 2f a9 3d e0 7b ec 3d b8 15 db be
       -0.45900625 0.08261025 0.11547065 -0.42790008
000220 a8 30 1b be ee 26 0a be 66 99 81 3e c1 27 97 3e
       -0.1515528 -0.13491413 0.25312346 0.29522517
000230 1a 22 8a be 36 db 04 3e 12 14 d2 3e a0 54 42 3d
       -0.26979142 0.12974247 0.41030937 0.047443986
000240 ec cb fe be 7e 00 8e be f0 d7 ca bd 36 49 8e be
       -0.49764955 -0.2773475 -0.09904468 -0.2779023
000250 91 37 1a be f6 0e 00 3f 57 d0 9a 3e e4 26 16 bb
       -0.1506026 0.5002283 0.30237076 -0.0022911364
000260 0f 4c 80 3e bd 0e aa 3e 1e 52 2f 3e 15 4c b0 be
       0.25058028 0.3321437 0.17121169 -0.34433046
000270 12 70 a3 3e 50 f4 58 be 4e 95 ec be 10 73 4f 3e
       0.3192144 -0.21186948 -0.4620766 0.20258737
000280 0a 48 bf 3e 7d 1c 01 3f 6d 00 39 be 58 00 4a bb
       0.3735965 0.50434095 -0.18066569 -0.0030822959
000290 30 ab 72 be c2 81 a0 3e 3e 09 fb be 50 3d 02 3d
       -0.23698115 0.31348997 -0.4903049 0.031796753
0002a0 9a 22 92 3e 1f 6e 73 3e 9c 9b a6 3e 77 10 a2 3d
       0.28542024 0.23772477 0.32540596 0.07913297
0002b0 bd 60 90 3e df a5 da be 92 c0 02 3e 4d 31 f1 3e
       0.28198805 -0.42704675 0.12768772 0.47107926
0002c0 e8 7e 09 3e fc 52 30 3e 34 63 73 be 96 9f ae be
       0.13427317 0.17219156 -0.23768312 -0.3410613
0002d0 c8 26 80 bd 4a b5 d8 be 30 5e d1 bd 38 6a e1 3e
       -0.06257397 -0.42325813 -0.10223043 0.4402635
0002e0 00 cd b6 3e f2 9e 80 3e b8 b8 c7 be a0 d1 67 3d
       0.35703278 0.25121266 -0.39008117 0.0565964
0002f0 c6 87 e4 bd 48 af c2 be 08 0b b1 3c 73 54 6f 3e
       -0.11158709 -0.38024354 0.021611705 0.23372059
000300 aa 62 c0 3e b4 e1 24 be 80 ae 5b bc 38 03 1c be
       0.37575275 -0.16101724 -0.013408303 -0.15235603
000310 cc ce 1a 3e b4 af e5 bd 57 3e ff 3c a2 d2 b6 3e
       0.15117949 -0.11215153 0.031157656 0.35707575
000320 93 58 47 3e 9e 52 50 3e a8 7a 9e 3e ca 77 e5 3e
       0.19467382 0.20344016 0.30952954 0.44817954
000330 40 8f f0 bd d0 67 af bd e6 9c eb be 86 f4 ed be
       -0.11746073 -0.085647225 -0.46018142 -0.4647562
000340 50 83 ab bd d9 6e 7f 3e ad 09 5f be 09 1c bb 3e
       -0.08374655 0.24944629 -0.21781035 0.36544827
000350 0e 33 7c b8 eb cf 1b 3e f1 cb 9d 3e 50 44 e4 3e
       -6.012903e-05 0.15216033 0.30819657 0.44583368
000360 b4 43 93 3e 50 39 00 3e e0 7c e9 bc 42 58 e4 be
       0.2876259 0.12521863 -0.028501928 -0.44598585
000370 50 a7 f1 3d a4 fc 44 be 18 a1 0f be cc eb 2f be
       0.117994905 -0.19237 -0.14026296 -0.17179793
000380 80 a1 04 be 62 77 96 be c6 d6 e8 be 20 58 f5 3e
       -0.12952232 -0.29387957 -0.4547636 0.47918797
000390 e2 1e 98 be 89 59 29 be d7 1e 5f 3e 59 94 d1 3e
       -0.29711062 -0.16538061 0.21789108 0.40933493
0003a0 ba 55 93 3e 01 a8 8b be 6a 22 01 3f 39 84 cc 3e
       0.28776342 -0.27276614 0.50443137 0.39944628
0003b0 1b f3 c1 be 2d 4f ed 3e 44 fb 70 be 60 07 04 3f
       -0.37880787 0.4634947 -0.2353335 0.51573753
0003c0 e8 97 8f be 49 0d 0a bb 7e c4 bf 3e 83 27 b6 3d
       -0.28045583 -0.0021065047 0.374546 0.08894255
0003d0 d6 c4 85 be ac 33 8e be 48 cf bc bd 00 a2 ce bd
       -0.26126736 -0.27773798 -0.09219223 -0.10089493
0003e0 31 94 8f be 3a 48 92 bd 40 06 19 3e 2e ed d3 3d
       -0.2804275 -0.071426824 0.1494379 0.10347973
0003f0 13 63 02 bf 4d d8 f3 3d f5 01 46 3e cc e2 0a 3e
       -0.50932425 0.119064905 0.19336684 0.13563079

model.0.bias f4 [64]
000000 39 7e 57 3e 66 4f 19 3e 4f cd 48 3d f7 54 95 be
       0.21044244 0.14971694 0.049023923 -0.29166386
000010 ad 98 6a 3e 8f 50 69 3d d8 ea 1b 3e c0 d6 46 bc
       0.22909804 0.056961592 0.15226305 -0.012136161
000020 e3 cd 66 be 7d 7a c1 3e 46 b5 f9 be f0 b8 d0 3d
       -0.22539477 0.37788764 -0.48771113 0.10191524
000030 98 08 af 3d f6 53 95 bd f1 a1 30 bd 9d 60 0a be
       0.08546561 -0.07291405 -0.04312319 -0.13513418
000040 b6 55 d2 be c0 1b df 3c 4c 04 5f 3e 2b c9 8c be
       -0.41081017 0.027234912 0.21778983 -0.2749723
000050 18 9a 8c 3e ae 8f bc be 14 1c 82 bc 60 6e a7 bc
       0.27461314 -0.3682837 -0.01588253 -0.020438373
000060 2b 0d a6 bd 9c dc dd 3e 32 17 f0 be 38 24 6f be
       -0.0810798 0.43332374 -0.46892697 -0.2335366
000070 0e 8d 97 be 90 84 15 be 0d 20 fd be a2 8f f2 be
       -0.29599804 -0.1460135 -0.49438515 -0.47375208
000080 71 83 f4 3e 22 da de be 51 bd a2 bd 0d 7c 6d 3e
       0.47756532 -0.43525797 -0.079462655 0.23191853
000090 08 85 f9 3e c2 0b c2 3e b4 8a 9c 3e 60 76 86 be
       0.48734307 0.37899595 0.30574572 -0.26262188
0000a0 b6 24 9c 3e b4 32 e1 3e c1 dc 4e 3e 80 c3 1c be
       0.30496758 0.43983996 0.20201398 -0.15308952
0000b0 38 8c de 3d cc f1 25 be 8c 1f a8 be 62 5e ea 3e
       0.10866588 -0.1620552 -0.32836568 0.45775133
0000c0 28 98 93 3d 8f e1 d2 be 1e 51 09 3c 88 24 9f 3d
       0.07206756 -0.41187713 0.008381156 0.0777064
0000d0 9a 61 97 be 4a fc 9d be bc eb fd 3e c2 2b d4 3e
       -0.29566652 -0.30856544 0.49593914 0.41439635
0000e0 98 38 f4 3d 54 b4 cc bc 19 17 3a 3e 69 e8 83 3e
       0.11924857 -0.02498833 0.18172874 0.25763252
0000f0 f1 e3 80 3e 00 d5 67 bc 0a f7 84 be 3b 31 3b be
       0.25173905 -0.014149904 -0.25969726 -0.18280499

model.3.weight f4 [64, 64]
000000 f8 36 26 3d d4 93 f5 3d aa 77 0e 3c 42 f2 3a 3c
       0.040579766 0.119910866 0.008695522 0.011410298
000010 c8 27 89 bd f1 5a 36 3d 10 5f b8 bc ba 31 97 bd
       -0.06697041 0.044520322 -0.022506267 -0.073825315
000020 37 89 23 3b 0d ef 88 bd ff 85 51 bc a0 4e 83 3d
       0.0024953613 -0.0668622 -0.012788295 0.06411481
000030 10 16 e4 3c 3f f8 14 bd 7b 92 fe 3d 6e 29 7e bd
       0.027842551 -0.03636956 0.12430283 -0.06205123
000040 20 46 f5 bc 50 44 e1 3d 60 11 a8 bb b0 0a af 3d
       -0.029940665 0.10999358 -0.0051290244 0.0854696
000050 25 b6 df 3d 36 08 3d 3c 27 24 df 3d 04 51 b8 3d
       0.10923413 0.011537602 0.108955674 0.089998275
000060 fd 49 8b bc f0 5e 42 3d 51 06 a8 bb 44 54 fc 3d
       -0.017003054 0.04745382 -0.005127706 0.1232076
000070 03 bd c3 bd 5a 6c ae bc a4 03 8b bd fa 22 bd 3d
       -0.095575355 -0.0212919 -0.06787804 0.09235187
000080 2e db 32 3d 74 d3 0d 3d 7a 06 01 bd 36 82 b4 bd
       0.043666057 0.034625486 -0.031500317 -0.08813898
000090 80 20 ac 3a 4b 7c b1 3d b1 68 02 3e a0 5e ea bd
       0.0013132244 0.08666285 0.12735249 -0.114438295
0000a0 19 6d 00 3e 58 e7 da 3d 10 a6 cd bd 94 9a 17 be
       0.12541617 0.106886566 -0.100414395 -0.1480506
0000b0 68 cc f1 3d e0 4f 63 3c 44 db 58 3d 1c 54 b3 bd
       0.118065655 0.013874024 0.052943483 -0.08756277
0000c0 f6 81 c3 bd e0 5d 4c bd a1 71 2b bd 92 c1 b6 bd
       -0.095462725 -0.049894214 -0.04185641 -0.08923639
0000d0 71 37 ef 3b dc 56 bc bd 36 ca f0 3d b8 74 bb bd
       0.0073003103 -0.091962546 0.11757319 -0.09153122
0000e0 0c c5 ac bd a1 ba d6 3c 80 c4 92 bd 4c 4f fc 3d
       -0.08436021 0.026212038 -0.07166386 0.12319812
0000f0 06 e0 c9 3d 18 cc b3 bc cc 54 78 bd b4 7b f9 3d
       0.09857182 -0.021947905 -0.060627744 0.121817976
000100 67 d7 1f 3e 05 8f e6 3d e1 4d cd 39 66 50 f7 bc
       0.15609513 0.112577476 0.0003915867 -0.030189704
000110 12 bc 57 3d 50 86 0b be 60 b5 66 3d fa 6a a8 3d
       0.052669592 -0.13625455 0.056325316 0.08223529
000120 70 10 0b bc 1d c6 3b 3d c5 2b 67 bd a0 99 e1 bd
       -0.008487806 0.045843232 -0.056438226 -0.1101563
000130 00 86 d0 bb 4a e4 a0 3d c2 be b9 3d 63 ea 11 be
       -0.0063636303 0.07856043 0.09069587 -0.14249568
000140 b8 7a d1 bc 66 e3 e3 3d 30 0d 2e bc 65 1a 08 be
       -0.025571212 0.11127357 -0.010623261 -0.13291319
000150 c3 35 a4 3c 4f af d6 bd a2 d2 1d 3d d0 81 94 3c
       0.020045167 -0.10482656 0.038530953 0.018128306
000160 8f d1 7b 3c 20 2f dd 3d e1 3d d1 3c 20 4b 79 3d
       0.015369787 0.10800004 0.025542201 0.06086266
000170 c5 de 3b 3d 0c 04 99 3d cf e5 83 bc 80 da 89 bc
       0.045866746 0.07471475 -0.016100792 -0.016827822
000180 b0 51 93 3d 04 64 7e 3d 6a c7 d0 bd 6a e7 02 3d
       0.07193315 0.0621071 -0.10194285 0.031958975
000190 b4 26 bc bd 3e 0a 29 bd 94 a2 66 bd c0 33 2c bc
       -0.091870695 -0.041269533 -0.05630739 -0.010510385
0001a0 e2 21 24 bc 08 e2 d6 bc 57 2c df 3d aa 0c 0a be
       -0.010017844 -0.026230827 0.10897129 -0.13481393
0001b0 0a 24 85 3d 86 6c ba 3d b0 ae aa bc 41 ac bc 3d
       0.065010145 0.091027305 -0.02083525 0.09212542
0001c0 a0 24 1f 3c 31 99 4e bb dc ea cf 3d b0 39 ca bc
       0.009713322 -0.0031524415 0.10152218 -0.02468571
0001d0 c0 3a 96 bc 61 91 e4 3d 20 7f 99 bd 80 7f 2b 3d
       -0.018338561 0.11160541 -0.0749495 0.04186964
0001e0 aa a2 94 3d 79 7a fd 3c 49 29 6c bd 13 8b 96 bc
       0.07257588 0.030942189 -0.05765656 -0.018376863
0001f0 28 11 a3 bd 24 e8 90 bd b6 ea b6 bd 81 be 8d 3d
       -0.07962257 -0.07075527 -0.08931486 0.06921101
000200 3f dc e6 bd 19 18 e9 bd f2 41 96 bd cc 1c 06 3e
       -0.11272477 -0.113815494 -0.07336797 0.13096923
000210 42 f3 7e 3d 2f 16 5a 3d e0 fd c8 3d 80 5e 15 3b
       0.062243707 0.053243812 0.09814048 0.0022791922
000220 55 35 91 3d f3 91 a0 3d b0 4a f1 bd a8 26 50 bc
       0.070902504 0.078403376 -0.11781824 -0.012704529
000230 4a fa 86 3d 63 d0 09 bc 9c d1 f2 bb b0 07 70 bd
       0.065907076 -0.0084115 -0.0074102413 -0.05860108
000240 84 03 05 bd 80 3d da bc 00 1b eb 3a 56 f4 97 3d
       -0.032474056 -0.026640654 0.0017937124 0.0741965
000250 e9 f5 ef 3d ef e1 bb bd b5 b6 97 3d fc 9b 94 bd
       0.117168255 -0.09173953 0.074078955 -0.07256314
000260 54 ca d9 bd ae c6 0a be 01 74 07 3e 10 8c 1c bc
       -0.10634294 -0.13552353 0.13227846 -0.009554878
000270 28 20 09 bd a9 4b cd bd 72 c6 52 3d a8 d0 b7 3c
       -0.033477932 -0.10024197 0.051458783 0.022438362
000280 f7 39 0e bc 64 ac 7c bd e9 fc cf 3d e4 7d 19 bd
       -0.008680812 -0.061687842 0.10155661 -0.037473574
000290 dc 83 ea 3d 94 1b b0 bd 73 ab 18 bb d4 e6 35 3d
       0.114509314 -0.0859901 -0.002329555 0.044409588
0002a0 26 58 83 3d 20 4c 9b bc 05 47 00 bd 27 de 83 bd
       0.06413297 -0.018957198 -0.03131773 -0.064388566
0002b0 48 86 bf bc 70 51 3f bc 30 c9 42 bd 79 e5 a5 bd
       -0.02337946 -0.011677131 -0.04755515 -0.08100409
0002c0 60 54 b7 bc b2 95 3a 3d 70 1d 01 3e 48 db d9 3d
       -0.0223791 0.045552917 0.12608886 0.10637528
0002d0 f0 62 1b be 3d b2 fe 3d b6 ae 88 bd b6 94 f6 bd
       -0.1517446 0.1243634 -0.066739485 -0.12040083
0002e0 38 28 fa bc 8c 40 80 bd 83 15 1b 3d 6b a4 c8 3d
       -0.030536756 -0.06262311 0.037862312 0.09796985
0002f0 0f cf 49 3d 30 9b 00 bc f8 3a 68 bd d2 2d b5 bd
       0.049269732 -0.0078495 -0.056696862 -0.0884663
000300 ce a2 80 bd 52 51 6f bd c2 c6 41 bd bc 14 65 3d
       -0.062810525 -0.058427162 -0.04730869 0.055927977
000310 a7 ea 0a 3e 0c e0 87 3d f8 f8 95 bc 48 a6 8d bc
       0.13566075 0.066345304 -0.018307194 -0.017291203
000320 43 5a 19 3d f7 95 19 bd ad fd 87 3a 9d d4 58 3d
       0.037439596 -0.037496533 0.0010375284 0.05293714
000330 e0 fa b9 bc 24 76 1c 3c f9 83 45 bd 1b 78 87 bc
       -0.022702634 0.009549651 -0.048221562 -0.016536763
000340 74 0b 81 3d ce f5 c1 bd d8 43 d8 bc 8c 7e bd bd
       0.06301013 -0.09470712 -0.026399538 -0.092526525
000350 5e d6 3b 3d 2c 7e fa 3c a4 c7 c2 3d fe 25 9a 3d
       0.045858733 0.030577742 0.09510735 0.07526778
000360 7f c9 ec 3d 6b f3 2b bd 76 4d ca bc a8 aa a3 3d
       0.1156187 -0.04198019 -0.02469514 0.079915345
000370 68 bb 3f 3d 6a 05 b4 3d 00 b3 04 3e 58 c4 c7 3c
       0.046809584 0.08790095 0.12958908 0.024385616
000380 14 46 1d bd 60 fa 81 3d 7f da 85 bd a2 c7 ab bd
       -0.03839691 0.06346583 -0.065358154 -0.08387686
000390 a8 85 be 3d 19 76 e5 3d 06 9d 9f 3d 80 f7 57 3b
       0.09302837 0.11204166 0.07793622 0.0032953918
0003a0 0a 9e 0f 3e 60 0c fd bd 70 62 72 bc 83 3a 48 3d
       0.14025131 -0.12355876 -0.014793977 0.048883926
0003b0 32 39 b2 bd bc c1 f4 3d 00 b6 f6 3c 76 9e 20 bd
       -0.087023154 0.119510144 0.030116081 -0.03921362
0003c0 ce 0d c3 3d 66 83 0f 3d 5a 31 5d bd c8 14 4e 3d
       0.095241174 0.03503742 -0.054002143 0.050312787
0003d0 f6 4c ed 3d 5b 94 31 bd f8 17 e2 bd 90 13 e4 bc
       0.11586945 -0.043354373 -0.11039728 -0.02784136
0003e0 10 75 4d 3d f8 6a 0e bd 2e 89 bb bd 94 d5 05 3d
       0.050160468 -0.034769982 -0.09157024 0.032674387
0003f0 c6 e3 e7 bc 60 62 9c bc fb b7 b6 3d 7b f3 b6 bd
       -0.028306853 -0.019089878 0.0892181 -0.08933159

model.3.bias f4 [64]
000000 08 c2 de bc 77 07 03 3e 2b 61 15 3c 32 59 c7 bd
       -0.02719213 0.12795816 0.009117405 -0.097338095
000010 8e ff 82 bd 4a cc bb 3d 11 f1 5b 3b 57 5a 2f 3c
       -0.063963994 0.091698244 0.0033560435 0.010702691
000020 c0 6c d7 bd 10 f2 2c 3d 09 8c ac 3d e6 c3 75 3d
       -0.10518789 0.042223036 0.08425147 0.060001276
000030 a1 c7 a4 3b e9 cc b1 3c be 5c 84 bd 3b d0 a7 bd
       0.0050286804 0.021704154 -0.06463002 -0.08194014
000040 d7 ae e3 bd 13 19 99 bd 95 61 ca bd 81 dc fe bd
       -0.111173324 -0.07475486 -0.098818935 -0.124444015
000050 b2 54 4c bd ed ad 89 3d e4 24 b3 3d 00 67 45 bd
       -0.04988546 0.06722627 0.08747271 -0.04819393
000060 32 14 3b 3d c0 43 bd bc 5b aa 8c 3c 2f 3e a0 bd
       0.045673557 -0.023103595 0.017171076 -0.078243606
000070 b8 c7 c6 bb b6 48 34 3d 65 23 15 bc d7 fe 99 3d
       -0.006066289 0.044014655 -0.009102677 0.0751931
000080 b9 4b ef 3d 9c 58 e1 bd 72 3a e8 3d f4 3a b6 bd
       0.11684365 -0.11003229 0.113392726 -0.08897963
000090 24 f8 87 bd b8 1c 68 bd 68 58 6e bc fb 68 c7 3b
       -0.06639126 -0.056668013 -0.014547445 0.0060855127
0000a0 f0 19 69 3d 8e f1 cb bd 64 22 83 3c 04 59 ca bd
       0.0569095 -0.09958182 0.01600761 -0.0988026
0000b0 9a b1 f2 bd 62 49 99 3d ad a2 ff bd 61 dd c0 bd
       -0.11850281 0.074847 -0.124822 -0.09417225
0000c0 35 25 54 bd 8c 21 26 bd e6 1a bc bd 4e 4e 88 bc
       -0.051793296 -0.040559337 -0.09184818 -0.016638901
0000d0 03 68 de bd 1c f3 0f 3d f3 55 98 bd 89 72 7c bd
       -0.108596824 0.035143957 -0.074382685 -0.061632667
0000e0 5e 0e 96 bd 89 05 25 3d a9 c8 44 bc ca da 59 3d
       -0.07326959 0.04028848 -0.012010732 0.05318717
0000f0 70 03 6a 3d bc d2 37 bd 95 39 b2 bd bd 85 8b bd
       0.057132185 -0.044878706 -0.08702389 -0.06812618

model.6.weight f4 [2, 64]
000000 54 af e1 3d 7b 4d 53 3d ca 68 48 bd 3d 9d c8 3d
       0.11019769 0.051587563 -0.04892806 0.09795616
000010 bf 2e 71 3d 38 91 e7 3c 14 cc 05 3e 36 4d 8b 3d
       0.05888247 0.028267488 0.13066131 0.06801836
000020 ae e1 d4 3d 45 e8 4b bd 55 fd 70 3d 86 6d 8c bd
       0.103946075 -0.049782056 0.058835346 -0.068568274
000030 a0 fe 1e be 84 12 e5 3d 99 b5 b0 3d 22 9a df bc
       -0.15526819 0.11185172 0.08628387 -0.027295176
000040 0c 8d bd bd 88 d8 47 bd bb 7e b3 bd 1c 93 09 be
       -0.09255418 -0.048790485 -0.08764406 -0.13435024
000050 dc 0a 47 bd 63 ea 09 be f4 e3 f1 bd ac 48 df 3d
       -0.04859434 -0.13468318 -0.11811057 0.10902533
000060 51 2e 70 bd bd c1 31 3d 31 dd a0 bc d0 a7 17 3e
       -0.05863792 0.043397654 -0.019636722 0.14810109
000070 b6 38 63 bd c8 c3 13 bd 82 5d bf bd 31 5a 44 3d
       -0.055474006 -0.036075383 -0.09344007 0.047937576
000080 27 15 50 3d 39 bb 08 3d 77 63 a7 bd 34 df 82 bd
       0.050801422 0.033381674 -0.08173268 -0.06390229
000090 d3 80 47 bd 70 7e 5c bd 2e 9d b2 bc f7 d4 ce 3c
       -0.04870684 -0.053831518 -0.021803465 0.025248034
0000a0 5d 05 36 bd 61 c6 85 bd e3 82 a7 bc d3 bc 24 3d
       -0.04443871 -0.065319784 -0.020448154 0.04021914
0000b0 b3 42 24 3c 69 f1 3e 3d 37 99 77 3c c1 59 3a 3d
       0.010025668 0.046616945 0.015112213 0.045495752
0000c0 54 29 25 3d ea 15 10 be 72 0a ef bb 58 9e a1 bd
       0.040322617 -0.1407086 -0.0072949464 -0.0789153
0000d0 da 52 cc bd 11 92 df 3d 23 b2 3a bd ec 73 09 be
       -0.0997674 0.10916532 -0.04558004 -0.13423127
0000e0 ab fb d3 bd 99 82 fa 3d ab ee b8 3d 52 0a 5d bc
       -0.10350736 0.12231941 0.09029897 -0.01349123
0000f0 44 91 d6 3d b8 7d 17 3e 91 be b5 3d 1b 4a 0a 3e
       0.10476926 0.14794052 0.08874238 0.13504831
000100 58 53 c7 bd 36 7f 71 3b 13 f3 a3 3d a9 47 4d bc
       -0.097326934 0.0036849505 0.08005347 -0.012529292
000110 d9 50 b4 bc 78 ac 05 3e e2 57 fd ba ae 98 e6 bd
       -0.022011207 0.13054073 -0.0019328559 -0.1125959
000120 e3 6c 45 bd fb dc b2 bd 29 72 1d bd ca 23 2c bd
       -0.048199546 -0.08733555 -0.03843895 -0.04202632
000130 27 f5 23 3d f7 6f 78 bc 83 24 c0 bc ff 92 4f 3c
       0.040028717 -0.015163413 -0.02345491 0.012669324
000140 33 cb 48 bd c7 7d 88 3d 2a 1c cf 3d 37 2d be 3d
       -0.04902191 0.06664615 0.10112794 0.09285968
000150 69 5c f2 3d 54 19 de 3d 53 66 11 3e e6 ce 61 bd
       0.11834032 0.10844675 0.1419919 -0.055128954
000160 c1 18 3f 3d ea 00 87 3d 4c 9f cb 3d 9e 58 bf 3c
       0.046654467 0.06591971 0.09942493 0.023357686
000170 43 26 76 3c 57 3d 9a 3d 78 2b 21 3e 92 ee f0 3c
       0.015023771 0.07531231 0.15739238 0.029410634
000180 38 42 97 bd 68 d9 44 3d 46 ab 01 3e 92 a6 2d 3e
       -0.07385677 0.048058897 0.12662992 0.16958073
000190 89 3a f7 bd e7 c6 07 3d a3 fa ed bd 89 47 04 3e
       -0.120717116 0.033148672 -0.11620071 0.12917913
0001a0 cb fb e9 3d ab 0f 05 3e 9d 09 aa 3d 2a e3 ee bd
       0.11424979 0.12994258 0.08302615 -0.11664422
0001b0 ff ec f0 3d 26 2f e7 3d c2 73 d3 bc ae 68 3a bd
       0.117639534 0.1128829 -0.025812034 -0.045509987
0001c0 1f a9 15 3d bb f7 ac bd dc ee ff 3d 7b 79 5b 3c
       0.03653824 -0.08445688 0.12496731 0.013395662
0001d0 74 0f a3 bc e5 b7 c6 bd d4 a6 d6 bc 93 83 9b 3d
       -0.01990483 -0.09703044 -0.026202597 0.07593455
0001e0 f2 d8 b4 3d b7 f9 c3 3d 78 21 c9 3d 55 2d f1 3d
       0.088304415 0.09569114 0.09820837 0.117762245
0001f0 1c 8b 30 3d 66 f6 4d bd 57 91 82 bd 13 9d 70 bd
       0.043101415 -0.050283812 -0.063753776 -0.058743548

model.6.bias f4 [2]
000000 da ab f9 bd ff 8e b4 bc
       -0.12190981 -0.022040842

exp_avg f4 [64, 4]
000000 f5 2a d8 36 7e 18 f6 b7 98 b0 b3 b5 fd 36 03 b7
       6.4423025e-06 -2.933689e-05 -1.3387935e-06 -7.821011e-06
000010 6e 16 30 b6 06 e7 6f 37 60 c6 22 36 5b 24 97 36
       -2.62391e-06 1.4299299e-05 2.425535e-06 4.504383e-06
000020 2a 41 64 b4 b7 23 6d b7 31 f1 49 b7 7a d8 09 b7
       -2.1257861e-07 -1.4134616e-05 -1.203669e-05 -8.216239e-06
000030 67 83 22 b7 97 71 e6 35 91 ca 05 b8 2a cc 49 b7
       -9.686547e-06 1.7169394e-06 -3.1898326e-05 -1.2028069e-05
000040 28 18 6d 37 24 5f 53 b8 f6 0f 0a 37 2e 6d 1c b7
       1.4131925e-05 -5.0394927e-05 8.229157e-06 -9.323745e-06
000050 d5 77 83 b7 de 73 3f b7 47 09 84 b8 62 09 e6 b7
       -1.5672218e-05 -1.1411465e-05 -6.2959785e-05 -2.7422506e-05
000060 00 00 00 00 00 00 00 00 00 00 00 00 00 00 00 00
       0.0 0.0 0.0 0.0
000070 00 00 00 00 00 00 00 00 00 00 00 00 00 00 00 00
       0.0 0.0 0.0 0.0
000080 eb 6b 0a b7 42 e5 f6 37 bb ed a0 b6 fd d8 b6 36
       -8.250568e-06 2.9432242e-05 -4.796047e-06 5.4492834e-06
000090 59 43 a9 35 b1 07 c3 36 88 ad 16 37 fc 2f a6 36
       1.2611082e-06 5.8123483e-06 8.9811e-06 4.9527716e-06
0000a0 37 13 1b 13 9a d4 e1 12 c4 be 1b 14 f3 ab 87 13
       1.9573224e-27 1.4251907e-27 7.863122e-27 3.4248346e-27
0000b0 e2 6f a3 b5 ba df 9d 36 f0 f1 e0 b4 34 24 87 35
       -1.2177009e-06 4.70501e-06 -4.1899284e-07 1.006882e-06
0000c0 00 00 00 00 00 00 00 00 00 00 00 00 00 00 00 00
       0.0 0.0 0.0 0.0
0000d0 60 7e 7a 36 d7 c5 dc b6 67 9a fd 36 31 67 b0 35
       3.7326463e-06 -6.5795425e-06 7.5579624e-06 1.3143055e-06
0000e0 cd 01 a9 36 2c 30 ae 35 26 d6 99 37 da 1a fb 36
       5.036802e-06 1.297803e-06 1.8338742e-05 7.483509e-06
0000f0 62 9b 14 b7 f1 3b 8a 38 2c 15 bb 37 0c 9b d2 37
       -8.857665e-06 6.591518e-05 2.2301996e-05 2.510615e-05
000100 00 00 00 00 00 00 00 00 00 00 00 00 00 00 00 00
       0.0 0.0 0.0 0.0
000110 00 00 00 00 00 00 00 00 00 00 00 00 00 00 00 00
       0.0 0.0 0.0 0.0
000120 00 00 00 00 00 00 00 00 00 00 00 00 00 00 00 00
       0.0 0.0 0.0 0.0
000130 be c4 93 b6 c0 47 94 37 8e 74 84 b5 90 9f 86 36
       -4.403845e-06 1.7676386e-05 -9.868688e-07 4.0120867e-06
000140 35 cf 4a b6 62 f7 f4 37 34 c0 59 37 20 e8 4e 37
       -3.0220956e-06 2.9202263e-05 1.2978959e-05 1.2332603e-05
000150 87 b8 0c b6 c2 89 c4 37 fd 96 41 37 9c 60 2d 37
       -2.0969035e-06 2.342917e-05 1.1538851e-05 1.0334097e-05
000160 2c 56 1a b7 a1 74 e3 37 05 3b 26 b7 10 0d 41 36
       -9.199179e-06 2.7114818e-05 -9.908113e-06 2.8766844e-06
000170 00 00 00 00 00 00 00 00 00 00 00 00 00 00 00 00
       0.0 0.0 0.0 0.0
000180 7a c4 d8 36 0d cb f1 b6 6d c9 89 37 5e 0d 9b 36
       6.4601745e-06 -7.205998e-06 1.6425469e-05 4.620916e-06
000190 7e 31 8e 37 2a c0 bf b7 6f 83 27 38 50 3a 26 37
       1.6950766e-05 -2.2858458e-05 3.993831e-05 9.907948e-06
0001a0 b3 27 85 b5 14 c0 6c 37 af 35 04 37 96 0a dd 36
       -9.920826e-07 1.4111418e-05 7.880312e-06 6.5875456e-06
0001b0 00 00 00 00 00 00 00 00 00 00 00 00 00 00 00 00
       0.0 0.0 0.0 0.0
0001c0 a6 0f 14 b7 f3 4b 0d 38 33 db 61 b6 f5 1c ed 36
       -8.825131e-06 3.3687753e-05 -3.3655203e-06 7.0665214e-06
0001d0 6e 9b 1c 37 87 df d7 b7 33 8f 40 37 be e0 00 b6
       9.334513e-06 -2.5734085e-05 1.1477433e-05 -1.9204303e-06
0001e0 64 67 40 36 62 f5 f0 b5 32 20 0d 37 72 72 3e 36
       2.867041e-06 -1.7952809e-06 8.411751e-06 2.8378822e-06
0001f0 00 00 00 00 00 00 00 00 00 00 00 00 00 00 00 00
       0.0 0.0 0.0 0.0
000200 ec 51 93 b7 87 89 56 b7 e8 f4 93 b8 05 e3 00 b8
       -1.7561913e-05 -1.2787415e-05 -7.0551236e-05 -3.0729007e-05
000210 00 00 00 00 00 00 00 00 00 00 00 00 00 00 00 00
       0.0 0.0 0.0 0.0
000220 ae 66 12 b7 53 62 0a 38 8a 53 70 b6 c4 7d e4 36
       -8.726185e-06 3.2993335e-05 -3.5811413e-06 6.8095706e-06
000230 a3 a6 8b b6 70 cb 44 37 05 d7 a4 b6 ad 33 86 35
       -4.161922e-06 1.1729877e-05 -4.9126124e-06 9.998818e-07
000240 00 00 00 00 00 00 00 00 00 00 00 00 00 00 00 00
       0.0 0.0 0.0 0.0
000250 7e 0c 7d 37 0a 4a 8d b7 24 c9 20 38 b9 d3 34 37
       1.5082884e-05 -1.6842987e-05 3.83343e-05 1.0778132e-05
000260 e4 63 7b 37 c4 f1 af b7 37 80 11 38 26 b6 0b 37
       1.4984023e-05 -2.0974207e-05 3.4690103e-05 8.327455e-06
000270 00 00 00 00 00 00 00 00 00 00 00 00 00 00 00 00
       0.0 0.0 0.0 0.0
000280 a2 f0 8f 37 43 c3 32 b8 95 6b d0 37 ba fc 71 b5
       1.7158982e-05 -4.262036e-05 2.4845629e-05 -9.014726e-07
000290 00 00 00 00 00 00 00 00 00 00 00 00 00 00 00 00
       0.0 0.0 0.0 0.0
0002a0 70 f2 a4 b6 01 69 ef 36 7d 87 3b b7 e2 c6 2d b6
       -4.9158043e-06 7.134979e-06 -1.1177614e-05 -2.5894774e-06
0002b0 54 20 46 b7 2a 43 10 b7 84 fb 46 b8 05 56 ad b7
       -1.1809247e-05 -8.598707e-06 -4.744112e-05 -2.0663263e-05
0002c0 00 00 00 00 00 00 00 00 00 00 00 00 00 00 00 00
       0.0 0.0 0.0 0.0
0002d0 00 00 00 00 00 00 00 00 00 00 00 00 00 00 00 00
       0.0 0.0 0.0 0.0
0002e0 00 00 00 00 00 00 00 00 00 00 00 00 00 00 00 00
       0.0 0.0 0.0 0.0
0002f0 4a 73 e9 b6 a5 fb a9 b6 90 75 ea b7 80 3d 4c b7
       -6.9573625e-06 -5.0658878e-06 -2.7949718e-05 -1.2173667e-05
000300 00 00 00 00 00 00 00 00 00 00 00 00 00 00 00 00
       0.0 0.0 0.0 0.0
000310 52 cc 7b b7 42 dc 3c 38 4c 4c 82 b7 59 5c ac 36
       -1.5008338e-05 4.5027824e-05 -1.5532736e-05 5.13675e-06
000320 fd c7 da b5 e4 08 9d 37 67 4b 1d 37 e9 8c 0b 37
       -1.630047e-06 1.8719998e-05 9.375485e-06 8.317854e-06
000330 00 00 00 00 00 00 00 00 00 00 00 00 00 00 00 00
       0.0 0.0 0.0 0.0
000340 72 6f 45 b5 e5 1e 4d b8 f9 ac 2e b8 94 77 ee b7
       -7.3550393e-07 -4.890458e-05 -4.1645926e-05 -2.8427494e-05
000350 8b b2 86 b6 9f 8e 8d 37 20 a8 9b b4 72 10 89 36
       -4.0142963e-06 1.6874923e-05 -2.8993327e-07 4.0848327e-06
000360 00 00 00 00 00 00 00 00 00 00 00 00 00 00 00 00
       0.0 0.0 0.0 0.0
000370 00 00 00 00 00 00 00 00 00 00 00 00 00 00 00 00
       0.0 0.0 0.0 0.0
000380 00 00 00 00 00 00 00 00 00 00 00 00 00 00 00 00
       0.0 0.0 0.0 0.0
000390 c5 e1 33 b6 35 39 3a 37 8a 19 b0 b4 11 b7 30 36
       -2.6804494e-06 1.10997835e-05 -3.2801137e-07 2.6332602e-06
0003a0 1c b9 23 b7 ba 5b 4d 38 40 6e bd 36 96 55 71 37
       -9.758656e-06 4.8961236e-05 5.6454737e-06 1.4384646e-05
0003b0 8d 4b 19 37 3e 45 76 b8 37 b8 82 b7 ac 92 ad b7
       9.137101e-06 -5.8715457e-05 -1.558299e-05 -2.0691507e-05
0003c0 a0 c2 85 b6 d8 3a c3 37 99 39 a5 36 c4 64 01 37
       -3.986366e-06 2.3273213e-05 4.9240884e-06 7.7124605e-06
0003d0 00 00 00 00 00 00 00 00 00 00 00 00 00 00 00 00
       0.0 0.0 0.0 0.0
0003e0 f0 40 d5 b6 a2 b1 3f 37 39 e8 54 b7 1c c7 0d b6
       -6.3554544e-06 1.14258455e-05 -1.2690253e-05 -2.1126534e-06
0003f0 a4 f5 4e 37 d7 a9 f9 b7 fa b9 9b 37 b0 e7 26 b4
       1.23357495e-05 -2.9762201e-05 1.8564042e-05 -1.5544242e-07

exp_avg_sq f4 [64, 4]
000000 ba 3a f7 30 82 87 15 33 16 b9 4a 33 ac a8 82 32
       1.7988306e-09 3.481501e-08 4.7200125e-08 1.5210695e-08
000010 5d dd 00 33 e7 bc 10 33 8c 54 61 34 2c e6 a4 32
       3.000365e-08 3.369942e-08 2.0985516e-07 1.9196783e-08
000020 33 8a 08 2d 6c 60 13 33 e7 bf d5 32 97 30 47 32
       7.761391e-12 3.43138e-08 2.488373e-08 1.1594373e-08
000030 1c 37 61 32 28 e7 bc 32 13 17 19 34 15 7c c8 32
       1.3109254e-08 2.1991198e-08 1.425763e-07 2.333949e-08
000040 05 25 ff 32 9d ee 43 34 73 96 5b 34 ce 34 27 33
       2.9702742e-08 1.8247597e-07 2.0450697e-07 3.8930743e-08
000050 cb 68 0b 33 e4 d2 93 32 e6 9d 0c 35 01 69 d5 33
       3.2458768e-08 1.7208954e-08 5.2383837e-07 9.9376855e-08
000060 00 00 00 00 00 00 00 00 00 00 00 00 00 00 00 00
       0.0 0.0 0.0 0.0
000070 00 00 00 00 00 00 00 00 00 00 00 00 00 00 00 00
       0.0 0.0 0.0 0.0
000080 51 2e 9e 31 49 b0 19 32 81 4a 08 33 2e d7 65 31
       4.6036708e-09 8.945855e-09 3.173273e-08 3.3446201e-09
000090 b7 6f 44 31 fc b6 21 33 6b a3 b4 31 14 b3 32 31
       2.8585256e-09 3.7652157e-08 5.257268e-09 2.6004203e-09
0000a0 fe 9e a1 2f 2a 60 2b 2f 5f 05 a3 31 84 69 77 30
       2.93987e-10 1.5586524e-10 4.744535e-09 9.0008023e-10
0000b0 f0 1b 1e 33 40 f0 ad 34 25 fe 65 33 ef b3 f5 31
       3.681265e-08 3.2398566e-07 5.354936e-08 7.1508945e-09
0000c0 00 00 00 00 00 00 00 00 00 00 00 00 00 00 00 00
       0.0 0.0 0.0 0.0
0000d0 65 97 7b 30 b3 92 29 32 d3 92 98 31 e9 4b b0 30
       9.152841e-10 9.87045e-09 4.440474e-09 1.282726e-09
0000e0 79 4f 35 30 4c c7 98 32 13 85 07 32 19 25 7e 31
       6.5960354e-10 1.7785759e-08 7.888292e-09 3.6982952e-09
0000f0 5c 78 26 32 c8 40 d2 33 9c c0 8f 32 2e 14 96 31
       9.689838e-09 9.790671e-08 1.673498e-08 4.3678687e-09
000100 00 00 00 00 00 00 00 00 00 00 00 00 00 00 00 00
       0.0 0.0 0.0 0.0
000110 00 00 00 00 00 00 00 00 00 00 00 00 00 00 00 00
       0.0 0.0 0.0 0.0
000120 00 00 00 00 00 00 00 00 00 00 00 00 00 00 00 00
       0.0 0.0 0.0 0.0
000130 13 9d f5 30 cd 25 91 31 6d e3 96 32 96 33 43 31
       1.7870739e-09 4.224353e-09 1.756572e-08 2.8405558e-09
000140 f6 39 ea 32 4b b0 a9 33 97 d6 06 34 45 81 da 31
       2.7267543e-08 7.901743e-08 1.255779e-07 6.3593313e-09
000150 72 50 6c 31 2f 3a 29 32 f3 a3 cd 32 be 84 4e 31
       3.4388248e-09 9.850324e-09 2.3939696e-08 3.00524e-09
000160 48 66 1d 33 5b b4 be 33 50 63 4a 34 79 e0 45 32
       3.6647435e-08 8.880371e-08 1.8848846e-07 1.1517948e-08
000170 00 00 00 00 00 00 00 00 00 00 00 00 00 00 00 00
       0.0 0.0 0.0 0.0
000180 53 30 7d 31 52 77 13 32 dd cb 31 33 d0 61 f9 31
       3.6843815e-09 8.5836565e-09 4.1396437e-08 7.2579738e-09
000190 c9 aa 01 33 5a 34 f0 33 23 4c fe 33 71 b7 a4 31
       3.019048e-08 1.11853936e-07 1.1841646e-07 4.793883e-09
0001a0 41 2d 0a 32 f3 7a f5 32 8c f1 0b 33 1d 1b bf 30
       8.042947e-09 2.8577665e-08 3.2583145e-08 1.3904785e-09
0001b0 00 00 00 00 00 00 00 00 00 00 00 00 00 00 00 00
       0.0 0.0 0.0 0.0
0001c0 68 8c 52 32 31 47 0f 33 51 6a 89 33 66 e6 9e 31
       1.22555335e-08 3.335953e-08 6.3988985e-08 4.6245985e-09
0001d0 e0 30 37 31 44 e5 48 32 fd 77 b9 32 3c 0e 80 31
       2.6657787e-09 1.1693661e-08 2.1591399e-08 3.7269086e-09
0001e0 c2 d6 dc 31 b0 51 81 32 a2 64 22 33 7c 49 5f 31
       6.427258e-09 1.5054724e-08 3.781009e-08 3.2492542e-09
0001f0 00 00 00 00 00 00 00 00 00 00 00 00 00 00 00 00
       0.0 0.0 0.0 0.0
000200 8b d3 8f 33 d2 81 18 33 6d 12 91 35 ef 2b 5c 34
       6.697436e-08 3.550833e-08 1.0808704e-06 2.050508e-07
000210 00 00 00 00 00 00 00 00 00 00 00 00 00 00 00 00
       0.0 0.0 0.0 0.0
000220 fb c8 6b 32 ec 38 0a 34 c3 92 b7 32 55 ed 8e 31
       1.3724498e-08 1.287296e-07 2.1370743e-08 4.1597255e-09
000230 29 93 8c 30 ea b8 c6 31 f2 f9 2e 32 3d 7b 12 31
       1.0228166e-09 5.7835807e-09 1.0184964e-08 2.131585e-09
000240 00 00 00 00 00 00 00 00 00 00 00 00 00 00 00 00
       0.0 0.0 0.0 0.0
000250 d4 89 ab 32 b0 b8 2b 34 47 1e 13 33 1c be 54 31
       1.9969697e-08 1.5992805e-07 3.425364e-08 3.0958125e-09
000260 cc 1f 39 33 40 2f 6c 34 71 e5 09 34 cc cf 8d 31
       4.3102588e-08 2.1996402e-07 1.284259e-07 4.127264e-09
000270 00 00 00 00 00 00 00 00 00 00 00 00 00 00 00 00
       0.0 0.0 0.0 0.0
000280 92 6e 0b 33 c0 be 2e 34 7f b7 d0 33 55 3f 42 31
       3.2464023e-08 1.6274407e-07 9.7191325e-08 2.8266716e-09
000290 00 00 00 00 00 00 00 00 00 00 00 00 00 00 00 00
       0.0 0.0 0.0 0.0
0002a0 88 57 39 30 35 f4 0c 32 2e 8b 65 32 09 e7 83 31
       6.7427e-10 8.204599e-09 1.33612e-08 3.8388674e-09
0002b0 0c 85 38 32 03 a8 c3 31 3f 1e 3a 34 b2 3b 0d 33
       1.0740461e-08 5.6943477e-09 1.7333603e-07 3.2883413e-08
0002c0 00 00 00 00 00 00 00 00 00 00 00 00 00 00 00 00
       0.0 0.0 0.0 0.0
0002d0 00 00 00 00 00 00 00 00 00 00 00 00 00 00 00 00
       0.0 0.0 0.0 0.0
0002e0 00 00 00 00 00 00 00 00 00 00 00 00 00 00 00 00
       0.0 0.0 0.0 0.0
0002f0 42 ec f0 31 dc 76 7f 31 83 02 f3 33 ac 67 b8 32
       7.0117787e-09 3.7174948e-09 1.1316026e-07 2.1467564e-08
000300 00 00 00 00 00 00 00 00 00 00 00 00 00 00 00 00
       0.0 0.0 0.0 0.0
000310 ae 10 3e 33 0d b2 2e 34 5c 70 39 34 99 37 e3 31
       4.4252992e-08 1.6269787e-07 1.7270344e-07 6.6128902e-09
000320 2a 56 b7 31 87 86 d5 33 91 56 82 31 3f ee f9 31
       5.3357967e-09 9.943056e-08 3.7933394e-09 7.2739392e-09
000330 00 00 00 00 00 00 00 00 00 00 00 00 00 00 00 00
       0.0 0.0 0.0 0.0
000340 75 40 2e 2e f8 14 3c 34 ac 64 08 34 a1 34 7e 33
       3.962027e-11 1.7516493e-07 1.2702611e-07 5.918685e-08
000350 79 c6 da 31 ae 6a 91 33 87 99 3a 32 9c 1e 63 31
       6.3671988e-09 6.7714936e-08 1.0861533e-08 3.3050247e-09
000360 00 00 00 00 00 00 00 00 00 00 00 00 00 00 00 00
       0.0 0.0 0.0 0.0
000370 00 00 00 00 00 00 00 00 00 00 00 00 00 00 00 00
       0.0 0.0 0.0 0.0
000380 00 00 00 00 00 00 00 00 00 00 00 00 00 00 00 00
       0.0 0.0 0.0 0.0
000390 32 5b 0a 32 5c 05 85 32 69 7d 52 33 bc 0c 8b 31
       8.053393e-09 1.5485675e-08 4.9008495e-08 4.04688e-09
0003a0 0d f4 7f 33 74 c5 75 34 9a 39 73 34 03 00 14 32
       5.9593777e-08 2.2889236e-07 2.2652094e-07 8.6147365e-09
0003b0 17 c5 3d 30 30 48 e7 34 f3 e2 a7 34 b2 79 1b 34
       6.903788e-10 4.3079626e-07 3.12713e-07 1.4479772e-07
0003c0 b1 61 c3 32 5d e7 68 32 d8 bc 6a 34 77 af fa 32
       2.2745413e-08 1.3556783e-08 2.1861649e-07 2.9183623e-08
0003d0 00 00 00 00 00 00 00 00 00 00 00 00 00 00 00 00
       0.0 0.0 0.0 0.0
0003e0 dd 98 9e 30 ac 93 1d 32 10 0f 8f 32 de eb 8f 31
       1.1539459e-09 9.1721795e-09 1.665424e-08 4.1886627e-09
0003f0 d3 a4 02 33 8b 22 eb 33 84 25 09 34 78 d3 e5 31
       3.041789e-08 1.09493236e-07 1.2772767e-07 6.6888184e-09

exp_avg f4 [64]
000000 78 e1 e4 b5 ce 8f 80 35 fc 82 db b5 e5 9d 12 b6
       -1.7052944e-06 9.578596e-07 -1.6354893e-06 -2.1847602e-06
000010 9c 1a 12 b6 0c f1 ab b6 00 00 00 00 00 00 00 00
       -2.1771184e-06 -5.1242587e-06 0.0 0.0
000020 46 c1 aa 35 a0 ec 80 35 e8 d0 4a 12 06 0c 75 34
       1.2722237e-06 9.60561e-07 6.399746e-28 2.2821777e-07
000030 00 00 00 00 82 2b 40 34 f8 68 b9 35 44 d1 ae 36
       0.0 1.7897221e-07 1.3814124e-06 5.209966e-06
000040 00 00 00 00 00 00 00 00 00 00 00 00 22 6b 71 35
       0.0 0.0 0.0 8.9935395e-07
000050 15 c1 29 36 a9 97 0d 36 66 56 51 35 00 00 00 00
       2.529535e-06 2.1098915e-06 7.7984294e-07 0.0
000060 1b e1 50 35 c1 a3 d6 35 19 7c b3 35 00 00 00 00
       7.781361e-07 1.5991901e-06 1.3372656e-06 0.0
000070 a1 cf d7 35 9c e7 1e b5 9e e1 06 35 00 00 00 00
       1.6079176e-06 -5.919662e-07 5.0247206e-07 0.0
000080 74 ac c0 b6 00 00 00 00 2b a1 d0 35 09 18 9d 34
       -5.742122e-06 0.0 1.5544114e-06 2.9261017e-07
000090 00 00 00 00 c8 8e f3 35 a0 30 b2 35 00 00 00 00
       0.0 1.8146466e-06 1.3276185e-06 0.0
0000a0 c7 3b 17 b5 00 00 00 00 9e 8f da b4 7f 8f 81 b6
       -5.633887e-07 0.0 -4.071016e-07 -3.8612047e-06
0000b0 00 00 00 00 00 00 00 00 00 00 00 00 f4 a8 18 b6
       0.0 0.0 0.0 -2.2748109e-06
0000c0 00 00 00 00 fe a5 b6 35 ba c2 e3 35 00 00 00 00
       0.0 1.3608367e-06 1.6969491e-06 0.0
0000d0 7a df bd b6 f2 fa 72 35 00 00 00 00 00 00 00 00
       -5.658655e-06 9.05172e-07 0.0 0.0
0000e0 00 00 00 00 02 31 1d 35 0c 59 4f 36 7c 74 91 b6
       0.0 5.8558373e-07 3.0897236e-06 -4.3348973e-06
0000f0 46 9b da 35 00 00 00 00 73 2f 96 b4 a9 a5 a4 b4
       1.6287456e-06 0.0 -2.79742e-07 -3.0667914e-07

exp_avg_sq f4 [64]
000000 ef 08 20 30 33 39 1d 30 a0 8f fc 2f f8 e9 5c 30
       5.8220356e-10 5.719755e-10 4.5940585e-10 8.0368023e-10
000010 86 52 c7 30 7b 75 6e 31 00 00 00 00 00 00 00 00
       1.450261e-09 3.4700338e-09 0.0 0.0
000020 82 be e9 2e dc 8e 02 2f cd 39 0a 2e 27 25 db 2f
       1.0629454e-10 1.1874185e-10 3.1428905e-11 3.9862266e-10
000030 00 00 00 00 db 74 65 2e eb 08 25 2f fa bb 65 2f
       0.0 5.217236e-11 1.5009831e-10 2.0894211e-10
000040 00 00 00 00 00 00 00 00 00 00 00 00 c8 58 d8 2e
       0.0 0.0 0.0 9.8383135e-11
000050 66 fc 35 2f c3 9c de 2e 05 f1 ab 2f 00 00 00 00
       1.6551524e-10 1.0123238e-10 3.1275973e-10 0.0
000060 83 95 8b 2f b9 4c 0b 2f 3e 07 21 2e 00 00 00 00
       2.5390187e-10 1.2669234e-10 3.6613594e-11 0.0
000070 27 41 16 2f d5 12 13 2f 8e 29 da 2e 00 00 00 00
       1.3665567e-10 1.3376263e-10 9.920874e-11 0.0
000080 7b 03 f6 31 00 00 00 00 01 8a 68 2f 6d 34 ac 2e
       7.159938e-09 0.0 2.1149306e-10 7.830967e-11
000090 00 00 00 00 04 14 3c 2f ec 27 1f 2f 00 00 00 00
       0.0 1.7105611e-10 1.4475149e-10 0.0
0000a0 b8 5b d2 2e 00 00 00 00 6c 8f 1f 2f 50 cf 9d 30
       9.565987e-11 0.0 1.451192e-10 1.1482175e-09
0000b0 00 00 00 00 00 00 00 00 00 00 00 00 70 0c 4e 30
       0.0 0.0 0.0 7.496004e-10
0000c0 00 00 00 00 85 1c 3a 2f 44 3a bb 2f 00 00 00 00
       0.0 1.6926734e-10 3.4056502e-10 0.0
0000d0 af 28 21 31 3e 51 2c 2f 00 00 00 00 00 00 00 00
       2.345171e-09 1.5672172e-10 0.0 0.0
0000e0 00 00 00 00 af ce 03 2f 3c 3c 7a 2f 82 1a c5 31
       0.0 1.198781e-10 2.2758767e-10 5.736468e-09
0000f0 e2 51 83 30 00 00 00 00 9d d4 2b 2f bf 50 53 2f
       9.554777e-10 0.0 1.5627895e-10 1.9219025e-10

exp_avg f4 [64, 64]
000000 20 4f 30 b7 67 51 ae 36 9d b1 59 b7 7e c9 a6 37
       -1.050884e-05 5.1950806e-06 -1.2975562e-05 1.988257e-05
000010 27 50 1c b7 f2 8a 30 37 00 00 00 00 00 00 00 00
       -9.3169865e-06 1.0522768e-05 0.0 0.0
000020 79 5b 28 37 8d 7f c4 b6 42 25 4d 0e 74 f6 88 37
       1.0034878e-05 -5.856104e-06 2.528614e-30 1.6327227e-05
000030 00 00 00 00 3e bb 32 b7 cc d0 a1 35 b4 bb 5b 37
       0.0 -1.06532225e-05 1.2056203e-06 1.309712e-05
000040 00 00 00 00 00 00 00 00 00 00 00 00 70 07 55 37
       0.0 0.0 0.0 1.2697521e-05
000050 cc a0 81 37 4c ac 7f 36 c0 65 04 37 00 00 00 00
       1.5452875e-05 3.809825e-06 7.891504e-06 0.0
000060 66 fc 4b 36 9b 88 09 b7 ba 6b c1 35 00 00 00 00
       3.0396272e-06 -8.197642e-06 1.4410973e-06 0.0
000070 90 c2 9d 36 d1 de 69 b7 bc e0 b1 b6 00 00 00 00
       4.7016147e-06 -1.3939761e-05 -5.3011736e-06 0.0
000080 94 a7 22 37 00 00 00 00 80 56 fb 36 fd 10 81 b6
       9.69497e-06 0.0 7.490453e-06 -3.8464773e-06
000090 00 00 00 00 36 28 2d b5 41 14 98 b5 00 00 00 00
       0.0 -6.4506037e-07 -1.1330777e-06 0.0
0000a0 ae c1 75 b7 00 00 00 00 14 ef 06 37 6c 00 a0 37
       -1.46482325e-05 0.0 8.042687e-06 1.9073683e-05
0000b0 00 00 00 00 00 00 00 00 00 00 00 00 ee 73 84 36
       0.0 0.0 0.0 3.9474025e-06
0000c0 00 00 00 00 6b cf e8 36 b1 d5 4b b6 00 00 00 00
       0.0 6.9382854e-06 -3.0373742e-06 0.0
0000d0 ee 46 20 b7 fd 58 8d b6 00 00 00 00 00 00 00 00
       -9.553258e-06 -4.212487e-06 0.0 0.0
0000e0 00 00 00 00 a7 e1 d3 36 52 46 70 37 48 3a eb b7
       0.0 6.3145594e-06 1.43214875e-05 -2.8041322e-05
0000f0 a8 af be 36 00 00 00 00 2f 34 04 36 f1 c8 87 b6
       5.6828903e-06 0.0 1.9699908e-06 -4.046706e-06
000100 d5 14 14 b6 93 00 90 35 64 dc 24 b6 6e 98 99 36
       -2.2065844e-06 1.0729003e-06 -2.4566189e-06 4.5775005e-06
000110 da f8 f9 b5 5e df 04 36 00 00 00 00 00 00 00 00
       -1.8624371e-06 1.979955e-06 0.0 0.0
000120 13 da 07 36 76 09 95 b5 14 e8 41 8d 1d a2 51 36
       2.0243504e-06 -1.1104119e-06 -5.975207e-31 3.123779e-06
000130 00 00 00 00 3a 90 81 b5 36 2a 7f 35 ec 84 bc 35
       0.0 -9.653224e-07 9.505633e-07 1.4045777e-06
000140 00 00 00 00 00 00 00 00 00 00 00 00 9f 8f 2d 36
       0.0 0.0 0.0 2.5862607e-06
000150 4a 4c a2 b5 6e b0 64 34 5c 1a 08 36 00 00 00 00
       -1.2092144e-06 2.129834e-07 2.0280922e-06 0.0
000160 79 b4 cb 35 dc bc 9c b5 dc e0 08 36 00 00 00 00
       1.5177203e-06 -1.1677871e-06 2.0396465e-06 0.0
000170 ca b4 26 36 22 f9 2a b6 b0 97 32 b5 00 00 00 00
       2.484116e-06 -2.5476988e-06 -6.65309e-07 0.0
000180 35 30 05 36 00 00 00 00 09 10 e4 35 90 f9 85 b4
       1.9846605e-06 0.0 1.6991991e-06 -2.495476e-07
000190 00 00 00 00 50 ea a4 35 02 e0 a3 b4 00 00 00 00
       0.0 1.2287146e-06 -3.0524103e-07 0.0
0001a0 5d 9d 28 b6 00 00 00 00 0a 11 58 36 00 d6 91 36
       -2.5125548e-06 0.0 3.2196426e-06 4.3462496e-06
0001b0 00 00 00 00 00 00 00 00 00 00 00 00 9a 5b 85 35
       0.0 0.0 0.0 9.935932e-07
0001c0 00 00 00 00 03 04 e0 35 f6 39 7d b5 00 00 00 00
       0.0 1.6690468e-06 -9.433419e-07 0.0
0001d0 c8 e0 ca b5 aa 4a f7 b4 00 00 00 00 00 00 00 00
       -1.5115593e-06 -4.606166e-07 0.0 0.0
0001e0 00 00 00 00 5b ec 00 36 4a e5 08 36 d1 97 be b6
       0.0 1.9211063e-06 2.0399043e-06 -5.680115e-06
0001f0 fb 72 f0 35 00 00 00 00 f8 ab e8 34 b6 64 4c b4
       1.7914857e-06 0.0 4.333849e-07 -1.9035619e-07
000200 e1 4a db 36 31 9c e9 36 7b 89 0b 37 cd 17 d8 b6
       6.5354257e-06 6.962124e-06 8.317055e-06 -6.4400724e-06
000210 b4 e2 bd 36 eb ae 8e b6 00 00 00 00 00 00 00 00
       5.6590306e-06 -4.252293e-06 0.0 0.0
000220 ff 9a 0a b6 34 dc fd 36 1d 02 1f 8f f6 39 79 b6
       -2.0653822e-06 7.5656226e-06 -7.839712e-30 -3.713763e-06
000230 00 00 00 00 11 b9 29 37 35 f8 82 37 18 0f a7 35
       0.0 1.0116274e-05 1.5612788e-05 1.2446862e-06
000240 00 00 00 00 00 00 00 00 00 00 00 00 05 e9 8b b6
       0.0 0.0 0.0 -4.16965e-06
000250 56 18 3e 37 b4 80 d7 36 4a 3d 93 36 00 00 00 00
       1.1330549e-05 6.4224823e-06 4.3880764e-06 0.0
000260 d6 83 d1 36 30 82 c0 36 53 d1 14 37 00 00 00 00
       6.244033e-06 5.7372017e-06 8.8702245e-06 0.0
000270 f4 83 c4 36 4a 47 38 37 f2 b1 46 37 00 00 00 00
       5.8566166e-06 1.0983853e-05 1.1843151e-05 0.0
000280 74 83 40 b6 00 00 00 00 60 8b c1 b4 34 34 f7 36
       -2.8686745e-06 0.0 -3.605046e-07 7.367251e-06
000290 00 00 00 00 ff 60 c6 36 e0 72 3f 33 00 00 00 00
       0.0 5.9121517e-06 4.457513e-08 0.0
0002a0 d3 de 2b 37 00 00 00 00 36 43 cc 35 8c 72 d7 b6
       1.0244275e-05 0.0 1.5218745e-06 -6.4208343e-06
0002b0 00 00 00 00 00 00 00 00 00 00 00 00 4b bc 06 b6
       0.0 0.0 0.0 -2.0077157e-06
0002c0 00 00 00 00 12 e5 17 b6 47 ed 27 37 00 00 00 00
       0.0 -2.263409e-06 1.0009221e-05 0.0
0002d0 e1 29 d7 36 72 ed 45 37 00 00 00 00 00 00 00 00
       6.4123747e-06 1.17974e-05 0.0 0.0
0002e0 00 00 00 00 39 76 53 36 a8 da 2e 36 5b d4 99 37
       0.0 3.1510265e-06 2.6055295e-06 1.8337907e-05
0002f0 0a a9 05 37 00 00 00 00 fa b0 00 b5 bf 7f a9 36
       7.966775e-06 0.0 -4.794125e-07 5.051464e-06
000300 4f 4e b1 b6 b5 71 2c 36 c0 0e bb b6 32 5d 2e 37
       -5.2841274e-06 2.5696183e-06 -5.5747514e-06 1.0392907e-05
000310 d6 c6 91 b6 2e 0f aa 36 00 00 00 00 00 00 00 00
       -4.3444843e-06 5.068162e-06 0.0 0.0
000320 3e dd b3 36 3d 9b 0e b6 1a b4 77 0f e3 cc 01 37
       5.3603717e-06 -2.125001e-06 1.22127265e-29 7.736703e-06
000330 00 00 00 00 69 a3 2b b6 b6 e3 d3 35 ef dc c3 36
       0.0 -2.5576103e-06 1.5786998e-06 5.837173e-06
000340 00 00 00 00 00 00 00 00 00 00 00 00 f1 e3 d4 36
       0.0 0.0 0.0 6.344628e-06
000350 f4 11 b5 b4 b8 23 a9 35 20 b5 b6 36 00 00 00 00
       -3.372694e-07 1.2601877e-06 5.4451084e-06 0.0
000360 b6 9f 9e 36 f6 1f 23 b6 86 2e 8e 36 00 00 00 00
       4.7273597e-06 -2.4307496e-06 4.237346e-06 0.0
000370 3c 30 bd 36 51 d8 b7 b6 10 51 c9 33 00 00 00 00
       5.638254e-06 -5.4790075e-06 9.374537e-08 0.0
000380 3e 3c 9d 36 00 00 00 00 a2 02 9b 36 ed fd 5a b5
       4.6859777e-06 0.0 4.6196665e-06 -8.158084e-07
000390 00 00 00 00 ac 96 2e 36 9a c4 30 35 00 00 00 00
       0.0 2.6015723e-06 6.58512e-07 0.0
0003a0 b6 f6 c3 b6 00 00 00 00 06 97 cd 36 75 2d 2d 37
       -5.840174e-06 0.0 6.1270575e-06 1.0322187e-05
0003b0 00 00 00 00 00 00 00 00 00 00 00 00 eb f8 15 36
       0.0 0.0 0.0 2.234762e-06
0003c0 00 00 00 00 d0 7d 8a 36 e0 5a 03 b6 00 00 00 00
       0.0 4.127367e-06 -1.9573417e-06 0.0
0003d0 19 40 7c b6 a1 51 14 b6 00 00 00 00 00 00 00 00
       -3.7588236e-06 -2.2101233e-06 0.0 0.0
0003e0 00 00 00 00 91 0c 89 36 c8 da a6 36 ea dc 59 b7
       0.0 4.084381e-06 4.972655e-06 -1.29856435e-05
0003f0 08 73 66 36 00 00 00 00 11 61 b5 35 78 50 84 b5
       3.4339628e-06 0.0 1.3513801e-06 -9.858186e-07
