example/lightning_logs/version_3/checkpoints/epoch=2-step=15.ckpt (torch, 5131 bytes, 6 tensors)

l1.weight f4 [4, 8]
000000 1f b2 b7 be ab 8d 90 3e f8 76 38 3e 60 57 af bd
       -0.35878083 0.28233084 0.18014133 -0.08561587
000010 a7 e1 29 bd 38 82 b0 bd d8 35 8a 3e b8 c7 9e be
       -0.041474964 -0.08618587 0.26994205 -0.31011748
000020 15 05 92 3e 04 0c 77 bc 51 c3 45 bd 3d 08 1a 3d
       0.28519502 -0.015078548 -0.04828197 0.037605513
000030 5c 07 91 3e 73 a2 71 be 04 b4 2d bd db f2 50 be
       0.28325927 -0.23597126 -0.042408004 -0.20405142
000040 f2 2e b3 be 9d 42 9a be 4f 2c 1d be 0e 42 3c 3e
       -0.34996754 -0.30128947 -0.15348934 0.18384573
000050 c0 e5 e7 3d 90 d3 c4 bd 20 31 26 3d d6 5f a1 be
       0.11323118 -0.09610665 0.040574193 -0.3151843
000060 80 e4 a5 3c c3 fd 6f be bd b5 dc be 99 ed e9 bd
       0.020250559 -0.23436646 -0.43107405 -0.11422271
000070 b4 68 52 3e 07 90 d0 be e1 7d 95 bd 64 df 0a 3e
       0.20547754 -0.40734884 -0.072994 0.1356178

l1.bias f4 [4]
000000 66 7e 3c be 20 53 9d 3d 7d 13 8d be 0d b0 27 3e
       -0.18407592 0.076818705 -0.2755393 0.16375752

exp_avg f4 [4, 8]
000000 ab 09 08 bc ba 50 5c bd fd 06 d1 bd d0 19 83 bd
       -0.008303086 -0.053787924 -0.10206411 -0.06401408
000010 f9 c0 59 bd 3e 19 db bd 86 81 05 bd 9a 9c 1a 3d
       -0.05316255 -0.10698174 -0.032594226 0.037747003
000020 5c 28 88 bf e7 64 e4 be 95 c5 02 3d 9f eb d6 be
       -1.0637317 -0.44608232 0.03192671 -0.4197664
000030 be 1c 98 be 6f 4f 63 bf 47 10 41 bf 2f f1 15 be
       -0.2970943 -0.8879308 -0.7541546 -0.14642785
000040 00 00 00 00 00 00 00 00 00 00 00 00 00 00 00 00
       0.0 0.0 0.0 0.0
000050 00 00 00 00 00 00 00 00 00 00 00 00 00 00 00 00
       0.0 0.0 0.0 0.0
000060 0c 88 06 3f 36 fd 9a 3e 39 94 b3 3d 70 c2 ce 3e
       0.5255134 0.3027131 0.087685056 0.4038272
000070 f2 a6 a3 3e 62 c2 f1 3e 6c 4d c2 3e e8 b8 c4 3e
       0.31963307 0.47218615 0.37949693 0.38422322

exp_avg_sq f4 [4, 8]
000000 b9 83 94 3b 11 83 3e 3c 59 bd 3f 3d 37 93 d4 3c
       0.004532304 0.011627928 0.046811435 0.025949104
000010 c2 a5 e1 3c 69 5c aa 3c e0 f5 87 3c 83 0a ed 3b
       0.02754486 0.020796018 0.016596735 0.007233919
000020 6b 79 45 3e a3 f0 8b 3d 64 06 41 3e e9 0d af 3d
       0.19284599 0.06833007 0.18850094 0.08547575
000030 d5 03 d2 3d 7d 9d ee 3d 18 33 f2 3d d7 6f ba 3d
       0.10254637 0.11651132 0.118261516 0.09103363
000040 00 00 00 00 00 00 00 00 00 00 00 00 00 00 00 00
       0.0 0.0 0.0 0.0
000050 00 00 00 00 00 00 00 00 00 00 00 00 00 00 00 00
       0.0 0.0 0.0 0.0
000060 33 ad 1b 3e a0 93 93 3d 20 85 80 3b 0f 11 19 3e
       0.15202789 0.072058916 0.0039221197 0.14947914
000070 33 a4 c7 3d af 29 1f 3e 2f 31 d3 3d 79 1f bd 3d
       0.097481154 0.15543245 0.103121154 0.092345186

exp_avg f4 [4]
000000 8e c0 45 bc f5 4d be bd 00 00 00 00 2e fc 56 3d
       -0.012069834 -0.09292213 0.0 0.05248659

exp_avg_sq f4 [4]
000000 d7 36 e2 39 0d 57 17 3b 00 00 00 00 3f 90 e1 3a
       0.00043146938 0.0023092658 0.0 0.0017209126
