example/lightning_logs/version_12/checkpoints/epoch=249-step=500.ckpt (torch, 4939 bytes, 6 tensors)

l1.weight f4 [2, 4]
000000 44 96 44 be 73 55 82 be eb 8a 8d 3d ef a8 2b bf
       -0.19197947 -0.25455818 0.06911262 -0.6705465
000010 37 a8 38 bf c6 d6 4b 3e fb ff ab be de 4f 03 bf
       -0.72131675 0.19906148 -0.33593735 -0.5129374

l1.bias f4 [2]
000000 31 1b 1e 3e 0e f1 00 bf
       0.1544006 -0.5036782

exp_avg f4 [2, 4]
000000 82 ce c6 18 01 c2 90 18 7c aa c7 19 69 ee 2d 19
       5.139032e-24 3.741902e-24 2.0644976e-23 8.992037e-24
000010 05 46 f1 16 5b aa fa 19 e5 75 d5 19 3b b5 91 19
       3.8979838e-25 2.59182e-23 2.2071301e-23 1.5065847e-23

exp_avg_sq f4 [2, 4]
000000 97 1e 09 3b 4c 65 91 3a a1 4e 0a 3d b9 e7 d1 3b
       0.0020922774 0.0011092811 0.033766393 0.0064057973
000010 94 5b c9 36 c5 56 d9 3c 16 9c 9d 3c c9 df 12 3c
       6.000928e-06 0.026530633 0.019239467 0.008964487

exp_avg f4 [2]
000000 66 01 02 18 2d 08 68 18
       1.6802812e-24 2.9989425e-24

exp_avg_sq f4 [2]
000000 a0 8a 6a 39 41 3a ba 39
       0.00022367621 0.00035520087
