example/lightning_logs/version_17/checkpoints/epoch=249-step=1000.ckpt (torch, 64346 bytes, 18 tensors)

model.0.weight f4 [64, 4]
0.32228318 0.074460134 -0.025347067 -0.46126908 -0.18456 -0.16132265 0.1802867 0.26265872
0.029639276 0.111898825 0.5435058 0.09323615 0.23654322 -0.11443854 -0.04102417 0.18802437
-0.17183934 -0.07695545 -0.12730089 0.4411539 0.15855832 0.41785008 -0.03520033 0.4864171
-0.48504198 -0.080824316 0.32266527 0.04034525 -0.11569422 -0.052690838 0.16048981 0.3511344
0.24760696 -0.4030178 0.31259778 0.22768861 -0.1958515 0.4352777 0.064735994 -0.057866387
-0.29615545 0.025380254 0.28566402 -0.07556373 0.09770864 0.3759828 -0.40353838 0.39772132
0.44313365 0.43900943 -0.447042 -0.39604762 0.23700082 -0.40584713 -0.122731864 0.20755553
0.4486807 -0.16210869 0.3058115 -0.48265353 0.36183843 -0.16521655 -0.1030218 0.21129227
-0.07845646 0.065074265 0.22600913 -0.4892689 -0.09572655 0.1317158 -0.5146256 0.40754804
-0.26647115 0.36606514 -0.2718426 -0.10581666 0.22042605 0.41881073 0.056467663 0.27331826
0.09138607 0.09702241 0.18370295 0.022372289 -0.25750977 -0.36341655 -0.038946033 -0.089264035
-0.31471023 0.39688066 0.037796997 0.4333034 -0.38705915 0.37858486 -0.27313626 0.38742062
0.2389664 -0.3366084 -0.06267375 -0.31970215 0.46964988 -0.29254648 0.3451331 -0.30029473
-0.117203414 0.13888323 -0.40968353 -0.15302646 0.020064533 -0.45111752 -0.356027 0.2307877
0.4836905 -0.43716386 -0.529356 0.24523428 0.23687863 -0.3431905 -0.4233986 0.10069668
-0.24829555 -0.44742364 0.25042033 0.48210174 0.17664352 -0.20753756 -0.21950614 0.2759752
0.39956453 -0.18323696 -0.049779017 -0.39341336 0.25954902 0.31108725 -0.19179957 0.24681553
0.45212987 -0.029170888 -0.5110217 -0.33430302 0.08421224 -0.19203019 -0.1109668 -0.4180318
0.2550598 0.0020403937 0.34036672 -0.2168435 0.44031543 0.5060626 -0.13207825 -0.08069896
-0.44310874 -0.010355353 -0.36342156 0.1199556 0.33369333 -0.18731129 0.38692668 -0.26351956
-0.23062408 0.18842317 -0.18372864 0.25664923 0.39943725 0.057404842 0.0839108 0.425641
0.26084635 0.20738684 0.51586336 0.19633447 0.047992587 -0.40597153 -0.19744825 -0.111055255
0.39259624 0.061835185 0.22368526 0.15750396 -0.22616619 -0.056928933 -0.2517597 0.4026233
0.027874595 0.3002679 -0.4371113 -0.33244073 -0.12453008 -0.12507778 -0.22697514 -0.24414349
0.10233932 0.23279642 0.013491082 0.06881534 -0.39809638 -0.10649216 0.4493103 -0.408063
0.11327957 0.46209177 0.35420528 0.10353027 0.29194686 0.37349048 -0.2715083 0.03855319
-0.41816372 -0.026372254 0.28280675 -0.1714992 0.34985942 0.30754977 -0.02914224 0.1397155
0.29268816 -0.45183197 0.27349663 0.18625359 -0.01643135 0.09278629 -0.24148749 0.14205074
0.37797445 -0.48145682 -0.32697636 0.061921954 0.28676358 0.07914593 0.4188333 0.22228813
-0.18387777 0.020516515 -0.21516484 0.20742404 -0.19506389 0.4141881 -0.17388976 -0.06805959
0.04345884 -0.04611827 0.2746936 0.37826505 -0.4140275 0.45164055 -0.0718047 -0.41989428
0.4054721 -0.23521689 0.3093056 -0.12696168 -0.12971121 0.101949334 -0.27943736 -0.30480886
00000000: 4d02 a53e 8e7e 983d a7a4 cfbc 762b ecbe
00000010: 4cfd 3cbe c431 25be 149d 383e 347b 863e
00000020: 11ce f23c 362b e53d 3223 0b3f 98f2 be3d
00000030: 6338 723e c15e eabd f608 28bd 7689 403e
00000040: a7f6 2fbe d29a 9dbd 2a5b 02be edde e13e
00000050: 1d5d 223e 72f0 d53e 392e 10bd aa0b f93e
00000060: 6c57 f8be 3887 a5bd 6234 a53e 1041 253d
00000070: 17f1 ecbd 59d2 57bd 7157 243e e3c7 b33e
00000080: ae8c 7d3e 5958 cebe d10c a03e 3427 693e
00000090: 4c8d 48be b8dc de3e 4e94 843d 4e05 6dbd
000000a0: b0a1 97be 40ea cf3c 8e42 923e 28c1 9abd
000000b0: 781b c83d d180 c03e 959c cebe 21a2 cb3e
000000c0: 6ae2 e23e d8c5 e03e b0e2 e4be c1c6 cabe
000000d0: 58b0 723e 32cb cfbe d85a fbbd 7089 543e
000000e0: 7ab9 e53e d2ff 25be 5393 9c3e 5d1e f7be
000000f0: e342 b93e 872e 29be 18fd d2bd 005d 583e
00000100: c8ad a0bd a845 853d f06e 673e 7481 fabe
00000110: 480c c4bd 82e0 063e 81be 03bf 23aa d03e
00000120: e86e 88be e46c bb3e f42e 8bbe 68b6 d8bd
00000130: 5eb7 613e 5c6e d63e a34a 673d 5ff0 8b3e
00000140: 9f28 bb3d afb3 c63d a01c 3c3e 1746 b73c
00000150: 52d8 83be bc11 babe e085 1fbd 10d0 b6bd
00000160: b321 a1be f133 cb3e 06d1 1a3d f1d9 dd3e
00000170: 9e2c c6be e0d5 c13e 84d8 8bbe ff5b c63e
00000180: 9cb3 743e f057 acbe 185b 80bd 00b0 a3be
00000190: f375 f03e a7c8 95be 49b5 b03e 3bc0 99be
000001a0: 5808 f0bd 6837 0e3e 0ac2 d1be f8b2 1cbe
000001b0: 605e a43c e0f8 e6be 2c49 b6be 9c53 6c3e
000001c0: 48a6 f73e f1d3 dfbe e083 07bf b21e 7b3e
000001d0: 5090 723e aab6 afbe b4c7 d8be 103a ce3d
000001e0: 3041 7ebe b614 e5be 1837 803e 0ad6 f63e
000001f0: 0ae2 343e ba84 54be 38c6 60be 9f4c 8d3e
00000200: b993 cc3e 78a2 3bbe 15e5 4bbd 7a6d c9be
00000210: 9ce3 843e d446 9f3e 1b67 44be 36bd 7c3e
00000220: 917d e73e c9f7 eebc 51d2 02bf c429 abbe
00000230: 7877 ac3d 90a3 44be 9042 e3bd 4408 d6be
00000240: 3397 823e 20b8 053b 8c44 ae3e 390c 5ebe
00000250: 0671 e13e 528d 013f 853f 07be 7f45 a5bd
00000260: 26df e2be 80a9 29bc 6412 babe 48ab f53d
00000270: dad9 aa3e 88ce 3fbe 411b c63e 09ec 86be
00000280: b828 6cbe 01f2 403e 5c23 3cbe 8767 833e
00000290: 0a83 cc3e 5721 6b3d 6dd9 ab3d 9eed d93e
000002a0: a78d 853e 375d 543e 9f0f 043f e70b 493e
000002b0: e093 443d 80db cfbe e02f 4abe f070 e3bd
000002c0: 6002 c93e e446 7d3d c00d 653e b848 213e
000002d0: 1c98 67be 502e 69bd a6e6 80be a424 ce3e
000002e0: 4359 e43c b7bc 993e 0dcd dfbe ac35 aabe
000002f0: a009 ffbd 6414 00be 2c6c 68be c000 7abe
00000300: 4797 d13d 2f62 6e3e b309 5d3c 0fef 8c3d
00000310: 4ad3 cbbe 9018 dabd 000c e63e a2ed d0be
00000320: 1fff e73d 4b97 ec3e 655a b53e ae07 d43d
00000330: 0f7a 953e 253a bf3e 2303 8bbe f3e9 1d3d
00000340: 8e19 d6be a00a d8bc 0ccc 903e 7c9d 2fbe
00000350: c620 b33e 2a77 9d3e b5bb eebc 9411 0f3e
00000360: 39db 953e 8556 e7be c007 8c3e 43b9 3e3e
00000370: 0a9b 86bc bd06 be3d 7f48 77be c075 113e
00000380: de85 c13e 8281 f6be 7269 a7be e0a1 7d3d
00000390: add2 923e 4317 a23d 5171 d63e 809f 633e
000003a0: 744a 3cbe 4012 a83c 2c54 5cbe f866 543e
000003b0: d4be 47be 7610 d43e 2810 32be d462 8bbd
000003c0: e601 323d 83e6 3cbd a4a4 8c3e f5ab c13e
000003d0: 6afb d3be 6e3d e73e 580e 93bd 62fc d6be
000003e0: 0a9a cf3e b2dc 70be 4e5d 9e3e 3e02 02be
000003f0: 04d3 04be d0ca d03d 6a12 8fbe e80f 9cbe

model.0.bias f4 [64]
0.15592003 0.23836046 -0.48018822 -0.23717834 -0.31571338 -0.28063193 0.39819777 0.37458238
-0.23339048 -0.05736146 0.27489525 0.021254573 -0.0949985 0.19603413 0.18270059 -0.33320415
-0.48541075 0.20634748 -0.25122154 -0.29241958 -0.028201876 0.07523209 0.260229 -0.062363375
0.46233624 -0.18353076 -0.02697891 0.043141067 0.38328713 0.39320827 -0.016879141 -0.04068587
0.49769184 -0.1290712 0.06599485 0.47604936 -0.21457691 0.059982434 -0.46861762 -0.15863131
0.30158168 -0.014424694 -0.45199776 -0.018363178 -0.08216772 -0.0987038 -0.023765031 -0.102689385
0.13771603 0.47832024 0.428796 -0.23234393 -0.10855842 -0.27969354 0.16380325 -0.29621467
-0.22089875 0.106062315 -0.24084234 0.31494606 0.0036755628 -0.35821563 0.12840492 -0.07006174
00000000: 80a9 1f3e c414 743e 3bdb f5be e1de 72be
00000010: 2fa5 a1be fdae 8fbe 94e0 cb3e 43c9 bf3e
00000020: eafd 6ebe daf3 6abd 12bf 8c3e 121e ae3c
00000030: 938e c2bd 2cbd 483e dd15 3b3e bc99 aabe
00000040: c287 f8be c14c 533e 1ca0 80be 05b8 95be
00000050: 9f07 e7bc 4813 9a3d bc3c 853e bd70 7fbd
00000060: 56b7 ec3e 7def 3bbe e002 ddbc b0b4 303d
00000070: 363e c43e 9852 c93e 2046 8abc 3aa6 26bd
00000080: 77d1 fe3e 3e2b 04be 4f28 873d bebc f33e
00000090: 0dba 5bbe 24b0 753d a6ee efbe 3f70 22be
000000a0: ea68 9a3e 8d55 6cbc 406c e7be 606e 96bc
000000b0: 8d47 a8bd 3825 cabd e2ae c2bc d04e d2bd
000000c0: 6e05 0d3e 64e6 f43e 268b db3e 91eb 6dbe
000000d0: e053 debd fe33 8fbe 0abc 273e 73a9 97be
000000e0: 4833 62be 3337 d93d 609f 76be 9c40 a13e
000000f0: b6e1 703b 0a68 b7be 947c 033e 887c 8fbd

model.3.weight f4 [64, 64]
0.13742556 0.027791962 -0.019281799 0.063318774 -0.09620455 -0.047499523 -0.10142903 -0.0014139507
0.19578704 0.00925476 -0.09145047 0.019115353 -0.09954454 0.11667551 0.046892446 0.012932126
-0.09042074 -0.15160573 -0.020426765 -0.072446354 -0.07567066 -0.015884936 0.065401345 -0.020530317
-0.041819617 0.053935904 0.08898172 0.051717877 -0.19117858 -0.10862075 -0.03319332 -0.17957082
-0.04431306 -0.053732164 0.078964725 0.01833336 0.06526508 0.045048654 0.067362055 0.08567753
-0.07846077 -0.014020418 -0.015522631 0.12065263 0.08096179 -0.082565084 -0.0044756955 -0.08827935
0.08926684 0.056236163 0.024586346 0.11780403 0.07737191 0.06609265 0.07820742 -0.19210872
0.11735012 0.052931 0.062976375 0.0761206 0.13090451 0.04301083 -0.029912878 -0.09094408
0.12332752 0.0039694905 0.16616307 0.0100220125 0.10329792 -0.1264829 0.052152902 -0.15645374
0.113523334 0.029417057 -0.01695408 0.025851682 -0.0049599116 -0.121644214 0.12692103 -0.12729254
0.11520688 0.0048178337 -0.06231706 0.07086136 0.13634549 -0.052167922 0.07825724 -0.04620691
-0.08876729 0.003927956 -0.043244585 -0.052241236 0.024489908 0.12372859 0.014153272 -0.14447312
0.09612593 -0.05283012 -0.017271664 0.04378444 0.13247785 -0.103575245 -0.069080815 0.11337533
-0.023299808 -0.11458711 0.10741525 0.07305899 0.08462949 -0.03036414 -0.11367135 0.043836877
0.09886623 -0.10534753 0.14168927 0.024410544 0.088360205 0.06276364 0.15350977 0.02220108
-0.053985953 -0.059739463 0.00021333992 0.045451958 0.057716936 0.066332296 -0.057930842 -0.10740504
-0.038657896 -0.040012926 -0.13319021 0.13711335 -0.07490714 -0.070993386 -0.044446707 -0.042766828
0.061629776 0.032618586 0.032260597 0.13163146 0.10766207 -0.040725276 -0.030962244 -0.0015948492
0.068488404 -0.06727826 -0.11151977 0.082448065 -0.034647435 0.035186216 0.013978766 0.16894399
-0.108717844 -0.12544133 -0.0983952 -0.06774028 -0.060809687 -0.040253267 -0.025043726 -0.04101572
-0.064693026 -0.0117639275 -0.011726745 0.12494865 -0.062413495 0.03684587 0.10485071 -0.0015093234
0.115427814 -0.06834378 -0.047841482 -0.101471424 0.02473105 0.064798996 0.12750268 0.0043123066
-0.031277165 0.036030844 -0.0027943396 0.10086204 0.004678741 0.11062015 -0.17361347 0.030709242
0.10872066 -0.019932842 -0.08273654 0.12825447 0.022453234 -0.009987041 0.03606216 0.040806174
0.115522325 -0.06892598 -0.061963633 0.00088391633 -0.11900289 0.034216944 -0.014877975 0.010931008
0.14257163 -0.09408744 -0.113054246 -0.0530972 -0.03997302 -0.10812871 0.017816512 0.019880064
-0.022657037 -0.06538734 -0.01782386 -0.040996294 0.13660622 0.105398014 -0.020113485 -0.050165784
-0.029946908 -0.03199602 0.03805189 -0.076333314 0.04963912 -0.009768948 0.031059012 -0.16021456
-0.012588656 -0.101847075 0.0032843954 -0.015979499 -0.008200005 0.07454203 0.060504377 0.11302508
0.04342334 0.074867874 0.019153869 -0.06125143 0.10136854 -0.05374098 -0.16486636 0.09060125
0.12851094 0.04274416 -0.005100903 -0.006875906 0.11652887 0.05913148 -0.010501746 -0.019684352
-0.03908719 -0.09147754 -0.045636743 -0.024642155 -0.017330138 0.0863232 0.12382711 0.078460574
00000000: 49b9 0c3e f8ab e33c ddf4 9dbc 46ad 813d
00000010: e406 c5bd dc8e 42bd 06ba cfbd 5054 b9ba
00000020: 667c 483e 47a1 173c 624a bbbd cd97 9c3c
00000030: 02de cbbd 92f3 ee3d 4b12 403d 45e1 533c
00000040: 822e b9bd 883e 1bbe 0856 a7bc c15e 94bd
00000050: 38f9 9abd 2021 82bc 24f1 853d 322f a8bc
00000060: 0c4b 2bbd e5eb 5c3d 0c3c b63d 20d6 533d
00000070: 51c4 43be 8e74 debd b8f5 07bd 6ae1 37be
00000080: 9c81 35bd 4216 5cbd 42b8 a13d d82f 963c
00000090: b3a9 853d f084 383d 1ef5 893d b377 af3d
000000a0: 0ab0 a0bd e5b5 65bc a252 7ebc ba18 f73d
000000b0: 4ccf a53d e217 a9bd dba8 92bb cecb b4bd
000000c0: 88d1 b63d e457 663d 4e69 c93c 3d43 f13d
000000d0: 2a75 9e3d 955b 873d 362b a03d 26b8 44be
000000e0: 4255 f03d 2dce 583d c2f9 803d 1ee5 9b3d
000000f0: d50b 063e 202c 303d da0b f5bc e440 babd
00000100: 2493 fc3d 8012 823b a726 2a3e 5e33 243c
00000110: dc8d d33d bc84 01be 489e 553d 6935 20be
00000120: ec7e e83d 0afc f03c 48e3 8abc e8c6 d33c
00000130: c186 a2bb 9a20 f9bd 96f7 013e fa58 02be
00000140: 96f1 eb3d ebde 9d3b 2c40 7fbd c31f 913d
00000150: 279e 0b3e 08ae 55bd 5545 a03d 7543 3dbd
00000160: a0cb b5bd 15b6 803b 3c21 31bd e8fa 55bd
00000170: 0f9f c83c 6a65 fd3d 20e3 673c c3f0 13be
00000180: acdd c43d 6564 58bd 4e7d 8dbc 5057 333d
00000190: 46a8 073e 421f d4bd 3e7a 8dbd 5331 e83d
000001a0: 3ddf bebc a6ac eabd 87fc db3d f49f 953d
000001b0: 3a52 ad3d 38be f8bc 86cc e8bd 4c8e 333d
000001c0: 617a ca3d 72c0 d7bd fe16 113e 9ff8 c73c
000001d0: 32f6 b43d 398a 803d aa31 1d3e 0adf b53c
000001e0: 6020 5dbd 5eb1 74bd 00b4 5f39 d52b 3a3d
000001f0: 9868 6c3d 3ad9 873d e448 6dbd 2cf7 dbbd
00000200: be57 1ebd 98e4 23bd 0463 08be 7167 0c3e
00000210: ea68 99bd fb64 91bd c00d 36bd 452c 2fbd
00000220: 816f 7c3d 119b 053d b023 043d 66ca 063e
00000230: ee7d dc3d 8ccf 26bd 88a4 fdbc 420a d1ba
00000240: a643 8c3d 2fc9 89bd 7a64 e4bd 88da a83d
00000250: 78ea 0dbd 6c1f 103d 3207 653c a7ff 2c3e
00000260: 76a7 debd b173 00be 6c83 c9bd 6abb 8abd
00000270: 9413 79bd 9ce0 24bd 8028 cdbc 1a00 28bd
00000280: c77d 84bd 7dbd 40bc 8921 40bc 14e5 ff3d
00000290: 4ba5 7fbd b2eb 163d f8bb d63d 7dd4 c5ba
000002a0: 6b65 ec3d d3f7 8bbd 6ef5 43bd 40d0 cfbd
000002b0: c598 ca3c 56b5 843d 1090 023e 404e 8d3b
000002c0: 7c1c 00bd 1495 133d 3d21 37bb c290 ce3d
000002d0: 2050 993b d18c e23d bbc7 31be f391 fb3c
000002e0: f0a8 de3d 334a a3bc c671 a9bd 2455 033e
000002f0: d8ef b73c b0a0 23bc eab5 133d 6024 273d
00000300: f896 ec3d 1029 8dbd 94cd 7dbd 9fb6 673a
00000310: cab7 f3bd 1127 0c3d c0c2 73bc f817 333c
00000320: 4cfe 113e eab0 c0bd fc88 e7bd 737c 59bd
00000330: c0ba 23bd 9672 ddbd eff3 913c 84db a23c
00000340: 409b b9bc cce9 85bd 5803 92bc bbeb 27bd
00000350: 80e2 0b3e eada d73d 09c5 a4bc a37a 4dbd
00000360: 3853 f5bc 420e 03bd 4cdc 1b3d a454 9cbd
00000370: 6452 4b3d f00d 20bc 786f fe3c 490f 24be
00000380: a640 4ebc 3395 d0bd 033f 573b 70e7 82bc
00000390: 5059 06bc 7ea9 983d 70d3 773d b179 e73d
000003a0: acdc 313d 5454 993d 93e8 9c3c c8e2 7abd
000003b0: 4f9a cf3d 801f 5cbd bad2 28be 268d b93d
000003c0: 5f98 033e 8014 2f3d 7a25 a7bb 484f e1bb
000003d0: b0a6 ee3d da33 723d 840f 2cbc 1441 a1bc
000003e0: e419 20bd 9458 bbbd 98ed 3abd 58de c9bc
000003f0: eff7 8dbc 38ca b03d 1199 fd3d f0af a03d

model.3.bias f4 [64]
-0.06648962 -0.0062744347 0.0927548 0.082229964 -0.028743 -0.08048823 0.027737215 0.04173696
0.074177586 0.00027831265 -0.047114033 0.07519929 -0.068191335 -0.069092326 0.09407401 -0.05169491
0.022410257 0.05445361 0.034265045 -0.123804435 0.10767789 -0.026936244 0.08274889 0.12072505
-0.10452988 -0.1323882 -0.057758223 -0.066477925 -0.08783687 0.0087702805 -0.123555265 0.0389725
-0.10431695 0.085823596 -0.028728379 0.09060341 -0.032520745 0.013066589 -0.033786744 0.12429222
-0.0035211567 0.088604495 -0.022285169 -0.09830341 -0.0003891072 -0.01936192 0.090534136 -0.0016553917
-0.025313692 -0.06213919 0.08449262 -0.054030444 -0.05429466 0.046670847 0.043226793 0.04696927
0.060927726 -0.01253744 0.058308437 -0.04414629 -0.017661192 -0.0665774 0.10761548 -0.022684436
00000000: b62b 88bd c699 cdbb 3bf6 bd3d 2f68 a83d
00000010: 7176 ebbc 03d7 a4bd 2839 e33c 60f4 2a3d
00000020: 6bea 973d 7eea 9139 a5fa 40bd 1602 9a3d
00000030: e6a7 8bbd 4780 8dbd e0a9 c03d 0bbe 53bd
00000040: b795 b73c c00a 5f3d 8159 0c3d 2e8d fdbd
00000050: 3a86 dc3d 66a9 dcbc 4078 a93d b23e f73d
00000060: c313 d6bd c690 07be e393 6cbd 9425 88bd
00000070: d1e3 b3bd 39b1 0f3c 8b0a fdbd a1a1 1f3d
00000080: 20a4 d5bd 48c4 af3d c757 ebbc 488e b93d
00000090: 7934 05bd 3f15 563c f863 0abd eb8c fe3d
000000a0: 35c3 66bb 4676 b53d 638f b6bc 4c53 c9bd
000000b0: 1601 ccb9 e49c 9ebc f669 b93d baf9 d8ba
000000c0: a95e cfbc aa85 7ebd 770a ad3d 074f 5dbd
000000d0: 1464 5ebd ee29 3f3d 940e 313d d962 403d
000000e0: 5a8f 793d d669 4dbc d4d4 6e3d bdd2 34bd
000000f0: 34ae 90bc bb59 88bd 8165 dc3d b6d4 b9bc

model.6.weight f4 [2, 64]
-0.050955806 -0.043356914 -0.04215201 -0.16312093 0.10933058 0.088610806 -0.038924713 0.0995413
0.13225262 -0.011892613 0.0030829823 0.020560965 0.03954567 -0.04075708 0.010213992 -0.10344201
0.1490252 0.13503464 -0.062675655 0.027422486 -0.15925312 -0.07740625 -0.13212182 -0.15710641
-0.082286656 0.084309384 0.028719058 -0.091562815 0.0097682895 -0.11440923 0.009833121 -0.00029391053
-0.04814285 0.015782513 -0.019740848 -0.20129687 -0.108554564 -0.17697829 -0.045616746 -0.059854608
0.19115467 0.008503222 -0.056595955 0.115742594 -0.07667283 0.0074889697 -0.09731632 0.06349523
0.03547949 -0.08436336 0.00077726535 0.07507755 0.033237085 0.114935555 -0.0180219 -0.015848802
0.11748401 -0.14893998 0.10536557 -0.07687907 0.16072232 0.12528585 0.012822044 -0.061585885
0.16783637 0.035302144 -0.1603298 0.09911483 -0.1310732 0.10950514 -0.030290883 -0.046163376
-0.0846969 0.10532297 -0.12862846 0.107694745 -0.16158389 0.054524887 0.09797781 0.14697763
-0.05038673 -0.06669642 0.15931782 -0.05645987 0.09894687 0.10756635 -0.047010545 0.06329214
0.077948496 0.00031746985 -0.003869344 0.07945756 0.030687753 0.037396464 0.008818198 -0.12310134
-0.000105358886 -0.038894616 0.08753322 0.030597413 0.06613046 0.0075657684 0.09898218 -0.14969747
-0.14008132 -0.031356018 0.045984164 -0.09750209 -0.15929134 0.046326026 0.07590372 0.08366799
-0.13101138 -0.019675978 0.1060788 -0.09088978 -0.21793671 -0.056493938 0.12029639 0.09516482
-0.10648703 0.08108089 0.03837466 0.13842006 -0.020982003 0.0034594506 0.060868762 0.0075385086
00000000: 09b7 50bd 0597 31bd 96a7 2cbd 2c09 27be
00000010: b6e8 df3d 9579 b53d 856f 1fbd 4fdc cb3d
00000020: 3b6d 073e 3cd9 42bc dc0b 4a3b 786f a83c
00000030: a4fa 213d e5f0 26bd 9658 273c 68d9 d3bd
00000040: 109a 183e 8546 0a3e 185c 80bd 1fa5 e03c
00000050: 4013 23be 2b87 9ebd f14a 07be 81e0 20be
00000060: e885 a8bd 66aa ac3d 3b44 eb3c 4985 bbbd
00000070: 2d0b 203c 634f eabd 191b 213c 0118 9ab9
00000080: 7031 45bd 544a 813c 8fb7 a1bc c420 4ebe
00000090: db51 debd cc39 35be a0d8 3abd 1b2a 75bd
000000a0: 0dbe 433e 1951 0b3c 29d1 67bd 740a ed3d
000000b0: a506 9dbd 0866 f53b c74d c7bd ca09 823d
000000c0: f152 113d b3c6 acbd 65c1 4b3a 42c2 993d
000000d0: 9c23 083d 5563 eb3d aaa2 93bc 59d5 81bc
000000e0: 759b f03d b983 18be e7c9 d73d c672 9dbd
000000f0: 6494 243e ef4a 003e 8d13 523c 7b41 7cbd
00000100: 4cdd 2b3e fb98 103d 7f2d 24be b7fc ca3d
00000110: 0e38 06be 3b44 e03d 9624 f8bc cf15 3dbd
00000120: 9175 adbd 92b3 d73d 2eb7 03be 108f dc3d
00000130: 3f76 25be 7d55 5f3d 97a8 c83d 4e81 163e
00000140: 5162 4ebd 2298 88bd 3624 233e 7742 67bd
00000150: a8a4 ca3d bf4b dc3d 218e 40bd 4f9f 813d
00000160: 76a3 9f3d 1572 a639 d294 7dbb a5ba a23d
00000170: e264 fb3c 092d 193d 347a 103c 8e1c fcbd
00000180: 1ff4 dcb8 f64f 1fbd 9e44 b33d 6da7 fa3c
00000190: 686f 873d 44ea f73b 2bb7 ca3d 4b4a 19be
000001a0: 7a71 0fbe 2b6f 00bd e459 3c3d 2daf c7bd
000001b0: 451d 23be 5cc0 3d3d 6973 9b3d 205a ab3d
000001c0: d927 06be 842f a1bc d83f d93d 6c24 babd
000001d0: cd2a 5fbe 3066 67bd f45d f63d c6e5 c23d
000001e0: df15 dabd bd0d a63d bf2e 1d3d fdbd 0d3e
000001f0: 73e2 abbc f3b7 623b 8651 793d 9805 f73b

model.6.bias f4 [2]
0.10156599 -0.045705557
00000000: d401 d03d c035 3bbd

exp_avg f4 [64, 4]
2.147317e-09 2.5158743e-06 -9.618011e-06 8.27286e-06 0.0 0.0 0.0 0.0
1.1430383e-05 1.2990261e-05 -4.5918778e-06 1.2311409e-05 1.895874e-05 1.698089e-05 9.851256e-06 5.398378e-06
6e-45 6e-45 6e-45 6e-45 2.2239767e-05 1.9936424e-05 1.14918475e-05 6.387907e-06
0.0 0.0 0.0 0.0 1.4602817e-06 9.777149e-07 2.0223235e-06 -6.7081095e-07
-2.418943e-05 -1.9776602e-05 -1.9798204e-05 -6.7099586e-07 7.3273554e-07 7.8484777e-07 -1.1114777e-07 6.3165515e-07
0.0 0.0 0.0 0.0 2.0093326e-05 1.8170378e-05 9.77785e-06 6.291575e-06
9.8272685e-06 9.096442e-06 3.9799643e-06 3.7669636e-06 0.0 0.0 0.0 0.0
1.1275502e-05 1.38509595e-05 -8.496452e-06 1.5555943e-05 1.1984982e-05 9.7370785e-06 1.0044636e-05 1.3006061e-07
0.0 0.0 0.0 0.0 -5.0436724e-06 -6.963756e-06 6.739356e-06 -9.485665e-06
0.0 0.0 0.0 0.0 1.2389853e-05 1.1225836e-05 5.946118e-06 3.9509036e-06
-3.2745636e-06 -2.2592426e-06 -4.2793085e-06 1.2844389e-06 0.0 0.0 0.0 0.0
2.3120396e-05 1.977641e-05 1.5579726e-05 3.5166938e-06 2.1885766e-05 1.7600894e-05 1.903115e-05 -3.5471794e-07
0.0 0.0 0.0 0.0 -1.28459005e-05 -8.970205e-06 -1.6376729e-05 4.6855585e-06
0.0 0.0 0.0 0.0 0.0 0.0 0.0 0.0
-4.0978907e-06 -6.0692505e-06 7.049455e-06 -9.060407e-06 0.0 0.0 0.0 0.0
0.0 0.0 0.0 0.0 -3.6644535e-06 -5.6667445e-06 7.220016e-06 -8.889987e-06
-1.2358362e-05 -8.106806e-06 -1.7756207e-05 6.2285603e-06 1.0130634e-05 8.969231e-06 5.664009e-06 2.5406607e-06
1.0792956e-05 8.572608e-06 9.795631e-06 -5.278888e-07 0.0 0.0 0.0 0.0
1.7567769e-05 2.0304495e-05 -8.355683e-06 2.0038326e-05 5.6635963e-06 5.056653e-06 3.0044707e-06 1.5597159e-06
0.0 0.0 0.0 0.0 -1.7242792e-05 -1.4398582e-05 -1.2959512e-05 -1.4699483e-06
2.8021097e-06 2.8084514e-08 1.0951738e-05 -7.3682368e-06 6.7048813e-06 6.27686e-06 2.4452816e-06 2.8024144e-06
7.2867774e-06 8.033437e-06 -1.979311e-06 7.0331876e-06 0.0 0.0 0.0 0.0
1.4298421e-05 1.3276291e-05 5.633085e-06 5.616417e-06 0.0 0.0 0.0 0.0
1.669096e-05 1.2249977e-05 1.900279e-05 -4.1308676e-06 0.0 0.0 0.0 0.0
6.1306105e-06 5.818338e-06 1.9332206e-06 2.8226377e-06 0.0 0.0 0.0 0.0
9.707292e-06 9.248581e-06 2.9243286e-06 4.5870142e-06 2.584274e-05 2.3767185e-05 1.1054205e-05 9.400214e-06
0.0 0.0 0.0 0.0 8.473922e-06 8.094949e-06 2.470672e-06 4.074811e-06
-6.9015878e-06 -1.3731877e-06 -2.198452e-05 1.3857019e-05 -2.1740268e-06 -4.461247e-06 8.489738e-06 -8.891521e-06
0.0 0.0 0.0 0.0 5.5823502e-06 6.224019e-06 -1.7828737e-06 5.617292e-06
0.0 0.0 0.0 0.0 5.2662454e-06 3.5297005e-06 7.2788257e-06 -2.406841e-06
3.3025683e-06 2.9252933e-06 1.841327e-06 8.3266303e-07 0.0 0.0 0.0 0.0
9.986049e-06 1.1199176e-05 -3.4390591e-06 1.0263333e-05 0.0 0.0 0.0 0.0
00000000: 0090 1331 64d6 2836 0b5d 21b7 aacb 0a37
00000010: 0000 0000 0000 0000 0000 0000 0000 0000
00000020: 1fc5 3f37 bff0 5937 ee13 9ab6 198d 4e37
00000030: 9609 9f37 2f72 8e37 d346 2537 b723 b536
00000040: 0400 0000 0400 0000 0400 0000 0400 0000
00000050: 898f ba37 253d a737 1ccd 4037 b457 d636
00000060: 0000 0000 0000 0000 0000 0000 0000 0000
00000070: e6fe c335 073a 8335 41b7 0736 c711 34b5
00000080: 68ea cab7 eee5 a5b7 5214 a6b7 7c1e 34b5
00000090: 34b1 4435 54ae 5235 22b0 eeb3 038f 2935
000000a0: 0000 0000 0000 0000 0000 0000 0000 0000
000000b0: 178e a837 976c 9837 8c0b 2437 381c d336
000000c0: ccdf 2437 ec9c 1837 a28b 8536 f1cb 7c36
000000d0: 0000 0000 0000 0000 0000 0000 0000 0000
000000e0: ea2b 3d37 6b61 6837 fc8b 0eb7 227e 8237
000000f0: 1b13 4937 6f5c 2337 6285 2837 caa6 0b34
00000100: 0000 0000 0000 0000 0000 0000 0000 0000
00000110: d13c a9b6 35aa e9b6 a122 e236 9f24 1fb7
00000120: 0000 0000 0000 0000 0000 0000 0000 0000
00000130: 03de 4f37 9956 3c37 c484 c736 0192 8436
00000140: 93c0 5bb6 7e9d 17b6 fb96 8fb6 fc64 ac35
00000150: 0000 0000 0000 0000 0000 0000 0000 0000
00000160: acf2 c137 84e5 a537 35b1 8237 5700 6c36
00000170: 5397 b737 a2a5 9337 15a5 9f37 1070 beb4
00000180: 0000 0000 0000 0000 0000 0000 0000 0000
00000190: b984 57b7 bd7e 16b7 c260 89b7 a438 9d36
000001a0: 0000 0000 0000 0000 0000 0000 0000 0000
000001b0: 0000 0000 0000 0000 0000 0000 0000 0000
000001c0: 9d80 89b6 77a6 cbb6 5b8a ec36 2702 18b7
000001d0: 0000 0000 0000 0000 0000 0000 0000 0000
000001e0: 0000 0000 0000 0000 0000 0000 0000 0000
000001f0: d5ea 75b6 f724 beb6 7743 f236 3426 15b7
00000200: c356 4fb7 7702 08b7 2af3 94b7 edfe d036
00000210: bef6 2937 8e7a 1637 780d be36 3880 2a36
00000220: 6513 3537 12d3 0f37 ea57 2437 3eb4 0db5
00000230: 0000 0000 0000 0000 0000 0000 0000 0000
00000240: 7f5e 9337 9253 aa37 632f 0cb7 fa17 a837
00000250: ec09 be36 52ac a936 6aa0 4936 6e57 d135
00000260: 0000 0000 0000 0000 0000 0000 0000 0000
00000270: 9da4 90b7 7091 71b7 ae6c 59b7 0a4b c5b5
00000280: e10b 3c36 803e f132 5bbd 3737 ac3c f7b6
00000290: 7efa e036 d19d d236 9e19 2436 1d11 3c36
000002a0: f180 f436 59c7 0637 4ed4 04b6 9ffe eb36
000002b0: 0000 0000 0000 0000 0000 0000 0000 0000
000002c0: 40e3 6f37 3cbd 5e37 d503 bd36 a874 bc36
000002d0: 0000 0000 0000 0000 0000 0000 0000 0000
000002e0: 9003 8c37 4085 4d37 2e68 9f37 e29b 8ab6
000002f0: 0000 0000 0000 0000 0000 0000 0000 0000
00000300: 8bb5 cd36 253b c336 7abc 0136 8c6c 3d36
00000310: 0000 0000 0000 0000 0000 0000 0000 0000
00000320: 80dc 2237 5a2a 1b37 953f 4436 27ea 9936
00000330: ddc8 d837 a45f c737 7375 3937 9db5 1d37
00000340: 0000 0000 0000 0000 0000 0000 0000 0000
00000350: 382b 0e37 8bcf 0737 d2cd 2536 5cba 8836
00000360: 3094 e7b6 5f4e b8b5 666b b8b7 727b 6837
00000370: 7fe5 11b6 d2b1 95b6 266f 0e37 cb2c 15b7
00000380: 0000 0000 0000 0000 0000 0000 0000 0000
00000390: 0650 bb36 ebd7 d036 134b efb5 2c7c bc36
000003a0: 0000 0000 0000 0000 0000 0000 0000 0000
000003b0: b4b4 b036 cbdf 6c36 a33c f436 3785 21b6
000003c0: b1a1 5d36 2850 4436 8423 f735 2b84 5f35
000003d0: 0000 0000 0000 0000 0000 0000 0000 0000
000003e0: c189 2737 18e4 3b37 96ca 66b6 ae30 2c37
000003f0: 0000 0000 0000 0000 0000 0000 0000 0000

exp_avg_sq f4 [64, 4]
5.7005494e-09 7.415024e-09 2.4840679e-08 2.0613191e-08 0.0 0.0 0.0 0.0
5.7853864e-09 5.3465827e-09 1.2329923e-08 8.36227e-09 5.5294986e-09 7.763268e-09 7.858289e-09 1.1906725e-08
7.266047e-09 7.343785e-09 7.270093e-11 3.028294e-09 1.1322455e-08 7.0250787e-09 6.153789e-08 3.004215e-08
0.0 0.0 0.0 0.0 3.8439345e-09 5.5621183e-09 1.0389084e-08 1.15210765e-08
2.9362026e-08 2.3650244e-08 4.3490555e-08 2.323409e-08 4.265103e-09 5.4942313e-09 1.8744228e-08 1.5389473e-08
0.0 0.0 0.0 0.0 5.641789e-09 6.9576425e-09 7.537042e-09 9.621422e-09
7.0471726e-09 7.730571e-09 2.811408e-09 5.9462537e-09 0.0 0.0 0.0 0.0
7.685228e-09 8.7762455e-09 2.1431719e-08 1.7946457e-08 7.4975866e-09 6.078966e-09 1.9598119e-08 1.0952998e-08
0.0 0.0 0.0 0.0 5.9103456e-08 5.917585e-08 1.1117569e-08 2.9432687e-08
0.0 0.0 0.0 0.0 3.383728e-09 3.0376754e-09 9.873224e-09 6.2264442e-09
4.0799932e-09 3.9692054e-09 1.039572e-09 1.9194206e-09 0.0 0.0 0.0 0.0
1.708363e-08 2.1012225e-08 3.8725283e-08 3.8229732e-08 4.176137e-08 3.9215525e-08 2.138417e-08 2.2584164e-08
0.0 0.0 0.0 0.0 4.9280237e-07 4.2417938e-07 8.0241094e-08 7.6615116e-08
0.0 0.0 0.0 0.0 0.0 0.0 0.0 0.0
7.939928e-08 8.291346e-08 1.3807637e-08 4.6860322e-08 0.0 0.0 0.0 0.0
0.0 0.0 0.0 0.0 6.5343734e-08 6.756273e-08 4.421021e-09 3.2966195e-08
3.2050536e-07 2.766812e-07 5.807798e-08 5.5127668e-08 3.072526e-09 2.792423e-09 4.8375783e-09 3.3387695e-09
3.9541974e-09 5.2860547e-09 8.131865e-09 9.352451e-09 0.0 0.0 0.0 0.0
8.786949e-09 9.231588e-09 5.888019e-08 3.858891e-08 5.5714846e-09 6.312392e-09 1.791636e-09 4.9192237e-09
0.0 0.0 0.0 0.0 5.288316e-08 4.588076e-08 1.2055786e-08 1.1064219e-08
2.3891002e-07 2.4997064e-07 5.4654137e-08 1.497408e-07 4.4371884e-09 4.7148094e-09 5.2027795e-09 5.379084e-09
5.205964e-09 6.6719346e-09 2.048608e-08 1.7315937e-08 0.0 0.0 0.0 0.0
2.7002095e-08 4.2551843e-08 3.1297393e-08 6.487158e-08 0.0 0.0 0.0 0.0
1.618093e-08 1.4750202e-08 1.0929241e-08 9.247241e-09 0.0 0.0 0.0 0.0
2.9753529e-09 3.0634624e-09 9.031926e-10 1.8781094e-09 0.0 0.0 0.0 0.0
1.2368208e-08 1.9657039e-08 1.855516e-08 3.255027e-08 1.4826336e-08 1.9662423e-08 4.768637e-08 4.4675065e-08
0.0 0.0 0.0 0.0 7.705284e-09 8.49066e-09 8.274079e-10 5.2872586e-09
2.5665495e-08 2.1622917e-08 4.260676e-08 2.5190312e-08 1.1086441e-08 1.0817408e-08 3.746084e-08 2.5384454e-08
0.0 0.0 0.0 0.0 3.3343326e-09 3.0974403e-09 1.929963e-09 1.8538697e-09
0.0 0.0 0.0 0.0 4.617193e-09 4.1013175e-09 5.3726903e-09 3.695198e-09
2.9704883e-09 3.5073968e-09 5.285444e-09 5.466039e-09 0.0 0.0 0.0 0.0
6.3275385e-09 6.669687e-09 1.6131668e-09 4.176835e-09 0.0 0.0 0.0 0.0
00000000: 90de c331 3ec7 fe31 3b61 d532 e310 b132
00000010: 0000 0000 0000 0000 0000 0000 0000 0000
00000020: ccc8 c631 0ab5 b731 93d3 5332 a7a9 0f32
00000030: fcfd bd31 375f 0532 1f01 0732 558e 4c32
00000040: d3a8 f931 9e54 fc31 fcde 9f2e 501a 5031
00000050: af84 4232 3f61 f131 d026 8433 b107 0133
00000060: 0000 0000 0000 0000 0000 0000 0000 0000
00000070: 9b13 8431 e91c bf31 ad7b 3232 3bee 4532
00000080: c737 fc32 7027 cb32 5fca 3a33 4e94 c732
00000090: 3e8c 9231 c5c7 bc31 fe02 a132 cf31 8432
000000a0: 0000 0000 0000 0000 0000 0000 0000 0000
000000b0: b3d9 c131 1210 ef31 437c 0132 764b 2532
000000c0: 9623 f231 69cf 0432 d032 4131 cd4f cc31
000000d0: 0000 0000 0000 0000 0000 0000 0000 0000
000000e0: fd07 0432 56c6 1632 d918 b832 ad28 9a32
000000f0: bcce 0032 27df d031 b858 a832 cb2b 3c32
00000100: 0000 0000 0000 0000 0000 0000 0000 0000
00000110: f0d8 7d33 8928 7e33 96ff 3e32 2ad3 fc32
00000120: 0000 0000 0000 0000 0000 0000 0000 0000
00000130: 2c87 6831 5abf 5031 e69e 2932 62f0 d531
00000140: 0030 8c31 8061 8831 b0e0 8e30 cee6 0331
00000150: 0000 0000 0000 0000 0000 0000 0000 0000
00000160: 4dbf 9232 5f7e b432 e652 2633 0932 2433
00000170: 1d5d 3333 ed6d 2833 4ab0 b732 1aff c132
00000180: 0000 0000 0000 0000 0000 0000 0000 0000
00000190: 1f49 0435 c5ba e334 0251 ac33 9b87 a433
000001a0: 0000 0000 0000 0000 0000 0000 0000 0000
000001b0: 0000 0000 0000 0000 0000 0000 0000 0000
000001c0: 3782 aa33 280e b233 a136 6d32 7843 4933
000001d0: 0000 0000 0000 0000 0000 0000 0000 0000
000001e0: 0000 0000 0000 0000 0000 0000 0000 0000
000001f0: 1953 8c33 0117 9133 b6e7 9731 b796 0d33
00000200: ec11 ac34 c68a 9434 6a71 7933 83c5 6c33
00000210: 7324 5331 d3e4 3f31 ca37 a631 4170 6531
00000220: 7ddd 8731 a1a0 b531 52b4 0b32 84ac 2032
00000230: 0000 0000 0000 0000 0000 0000 0000 0000
00000240: 69f5 1632 f498 1e32 74e3 7c33 f5bc 2533
00000250: 4c6f bf31 63e4 d831 963d f630 f305 a931
00000260: 0000 0000 0000 0000 0000 0000 0000 0000
00000270: a621 6333 6e0e 4533 e81d 4f32 f314 3e32
00000280: 8b43 8034 b433 8634 dcbc 6a33 70c8 2034
00000290: ec75 9831 e7ff a131 22c4 b231 ecd2 b831
000002a0: 25e0 b231 f53e e531 5ef9 af32 26be 9432
000002b0: 0000 0000 0000 0000 0000 0000 0000 0000
000002c0: 3cf2 e732 3fc2 3633 d96b 0633 874f 8b33
000002d0: 0000 0000 0000 0000 0000 0000 0000 0000
000002e0: 3efe 8a32 1368 7d32 4fc3 3b32 ccdd 1e32
000002f0: 0000 0000 0000 0000 0000 0000 0000 0000
00000300: f676 4c31 0085 5231 8744 7830 0d10 0131
00000310: 0000 0000 0000 0000 0000 0000 0000 0000
00000320: f47b 5432 49da a832 3a63 9f32 66cd 0b33
00000330: eab6 7e32 20e6 a832 b8cf 4c33 c1e0 3f33
00000340: 0000 0000 0000 0000 0000 0000 0000 0000
00000350: 3360 0432 51de 1132 a86f 6330 38ab b531
00000360: 0577 dc32 4cbd b932 a1fe 3633 1562 d832
00000370: af76 3e32 77d7 3932 a1e4 2033 010d da32
00000380: 0000 0000 0000 0000 0000 0000 0000 0000
00000390: 3322 6531 bfda 5431 45a0 0431 3ecb fe30
000003a0: 0000 0000 0000 0000 0000 0000 0000 0000
000003b0: 42a5 9e31 92eb 8c31 af9a b831 9cee 7d31
000003c0: 6221 4c31 c706 7131 429b b531 cacf bb31
000003d0: 0000 0000 0000 0000 0000 0000 0000 0000
000003e0: 9e69 d931 302b e531 43b6 dd30 d483 8f31
000003f0: 0000 0000 0000 0000 0000 0000 0000 0000

exp_avg f4 [64]
-2.9103924e-07 0.0 8.297067e-07 1.9050678e-06 6e-45 2.232815e-06 0.0 1.8499469e-07
-2.6495577e-06 5.873506e-08 0.0 1.999003e-06 9.5338527e-07 0.0 6.983546e-07 1.3198858e-06
0.0 -2.233999e-07 0.0 1.2301009e-06 -4.0709673e-07 0.0 2.4312262e-06 2.4310934e-06
0.0 -1.5845782e-06 0.0 0.0 -1.338539e-07 0.0 0.0 -9.19551e-08
-1.585028e-06 1.0300867e-06 1.2113203e-06 0.0 1.2358964e-06 5.7097054e-07 0.0 -1.853752e-06
5.690881e-07 6.4228976e-07 5.5763513e-07 0.0 1.3823769e-06 0.0 1.9899664e-06 0.0
5.781146e-07 0.0 9.112539e-07 2.5249217e-06 0.0 7.929873e-07 -1.2505845e-06 7.280663e-08
0.0 4.191299e-07 0.0 6.667168e-07 3.3565118e-07 0.0 7.422033e-07 0.0
00000000: 2140 9cb4 0000 0000 03b9 5e35 a2b1 ff35
00000010: 0400 0000 78d7 1536 0000 0000 f4a2 4634
00000020: 0ecf 31b6 e243 7c33 0000 0000 9c26 0636
00000030: 23ec 7f35 0000 0000 9076 3b35 ee26 b135
00000040: 0000 0000 b2df 6fb4 0000 0000 f219 a535
00000050: f38e dab4 0000 0000 2628 2336 de25 2336
00000060: 0000 0000 b1ad d4b5 0000 0000 0000 0000
00000070: 7bb9 0fb4 0000 0000 0000 0000 da78 c5b3
00000080: 26bd d4b5 8241 8a35 a694 a235 0000 0000
00000090: 14e1 a535 cc44 1935 0000 0000 6fce f8b5
000000a0: 70c3 1835 d169 2c35 65b0 1535 0000 0000
000000b0: 1c8a b935 0000 0000 5d8b 0536 0000 0000
000000c0: bc2f 1b35 0000 0000 e49c 7435 d371 2936
000000d0: 0000 0000 acdd 5435 c2d9 a7b5 de59 9c33
000000e0: 0000 0000 c604 e134 0000 0000 6ef8 3235
000000f0: 8c33 b434 0000 0000 d33b 4735 0000 0000

exp_avg_sq f4 [64]
6.702092e-11 0.0 6.8575236e-11 3.4133463e-11 5.5987638e-11 2.2555745e-10 0.0 2.9874037e-11
3.5129805e-10 5.090344e-11 0.0 4.3242788e-11 5.2808223e-11 0.0 8.3077586e-11 1.02632514e-10
0.0 4.772405e-10 0.0 4.51299e-11 3.4473042e-11 0.0 1.5639319e-10 3.8312972e-10
0.0 4.6186774e-09 0.0 0.0 6.0682664e-10 0.0 0.0 4.9493554e-10
3.0054172e-09 3.4186768e-11 3.087367e-11 0.0 1.5649718e-10 3.9165008e-11 0.0 4.9758986e-10
1.8418296e-09 4.0082614e-11 5.8709294e-11 0.0 1.1140816e-10 0.0 1.5682046e-10 0.0
2.3759147e-11 0.0 5.6058966e-11 1.4420821e-10 0.0 5.385639e-11 3.0522132e-10 1.4764276e-10
0.0 3.1258766e-11 0.0 4.930492e-11 2.6315977e-11 0.0 4.8572275e-11 0.0
00000000: 6c61 932e 0000 0000 6dcc 962e dd1e 162e
00000010: 7a3c 762e c700 782f 0000 0000 2d63 032e
00000020: ce20 c12f 2ee0 5f2e 0000 0000 0d2f 3e2e
00000030: c640 682e 0000 0000 86b0 b62e f8b0 e12e
00000040: 0000 0000 d12e 0330 0000 0000 c07b 462e
00000050: 329d 172e 0000 0000 c5f4 2b2f b7a0 d22f
00000060: 0000 0000 51b2 9e31 0000 0000 0000 0000
00000070: a1cd 2630 0000 0000 0000 0000 fe0b 0830
00000080: dc87 4e31 e15a 162e aac8 072e 0000 0000
00000090: 0a12 2c2f e13f 2c2e 0000 0000 c6c6 0830
000000a0: 9e23 fd30 0349 302e 651a 812e 0000 0000
000000b0: 38fd f42e 0000 0000 096d 2c2f 0000 0000
000000c0: d8fc d02d 0000 0000 c98c 762e 018f 1e2f
000000d0: 0000 0000 e8dc 6c2e 15cc a72f be55 222f
000000e0: 0000 0000 3e7a 092e 0000 0000 68d8 582e
000000f0: 507a e72d 0000 0000 859f 552e 0000 0000

exp_avg f4 [64, 64]
-6.7936085e-08 0.0 1.3565664e-06 -7.0370805e-07 6e-45 -1.0909373e-05 0.0 9.1967377e-07
-9.312848e-07 8.844255e-07 0.0 -1.0717895e-07 -4.9729224e-06 0.0 -5.863993e-07 -1.0467801e-06
0.0 3.414698e-06 0.0 -1.8085075e-05 7.9476797e-07 0.0 -3.4976713e-06 2.7259146e-06
0.0 -2.344021e-06 0.0 0.0 2.4484439e-06 0.0 0.0 1.8318832e-06
-1.5479617e-06 -4.5919137e-06 6.0116633e-07 0.0 9.915748e-07 -1.157483e-06 0.0 -1.6075755e-06
1.8483795e-06 7.338368e-06 8.732846e-06 0.0 4.2078557e-07 0.0 9.836021e-07 0.0
1.0511776e-06 0.0 -8.525351e-07 -3.3212418e-06 0.0 4.4220596e-06 -1.2105646e-06 1.8181537e-06
0.0 1.8936946e-06 0.0 1.2701252e-06 -1.8145158e-07 0.0 3.209074e-07 0.0
-1.6947132e-07 0.0 4.9140925e-07 -1.02429e-08 6e-45 -2.2138738e-06 0.0 6.9283965e-07
-3.7261492e-07 2.8409477e-07 0.0 5.0571475e-07 -8.54277e-08 0.0 -6.40427e-07 7.13675e-08
0.0 1.5586702e-06 0.0 -2.948249e-06 9.4447114e-07 0.0 1.6302465e-08 1.012756e-06
0.0 -1.0159564e-06 0.0 0.0 1.2137644e-06 0.0 0.0 8.000848e-07
-6.106803e-07 -1.1859365e-06 4.6402508e-07 0.0 2.612087e-07 -1.383929e-06 0.0 -8.963962e-07
6.7328006e-07 2.054142e-06 3.2081566e-06 0.0 -6.114353e-08 0.0 3.5212472e-07 0.0
3.254019e-07 0.0 7.147299e-07 -1.23896e-06 0.0 2.0506873e-06 -4.6816538e-07 7.487305e-07
0.0 1.0320359e-06 0.0 8.240086e-07 7.969447e-09 0.0 1.910172e-08 0.0
2.513453e-06 0.0 2.9585858e-06 1.7451332e-06 -6e-45 1.1783763e-05 0.0 1.2132814e-07
1.5325354e-06 1.4805835e-06 0.0 2.43237e-06 1.0098271e-05 0.0 3.8086805e-06 3.1769255e-06
0.0 -4.0116824e-06 0.0 1.3765815e-05 3.8583735e-06 0.0 3.231911e-06 -3.382675e-06
0.0 4.21215e-06 0.0 0.0 -2.7207097e-06 0.0 0.0 -1.6587448e-06
2.6582363e-06 8.209064e-06 5.63812e-07 0.0 3.3209567e-06 2.4455248e-06 0.0 3.6417778e-06
-2.073146e-06 1.1417038e-06 2.5795564e-06 0.0 7.2393154e-06 0.0 -1.1075208e-06 0.0
1.4251e-06 0.0 5.8845962e-06 5.459282e-06 0.0 1.93771e-06 1.6799626e-06 -1.9207823e-06
0.0 2.4826568e-06 0.0 7.86872e-07 2.8279048e-06 0.0 3.2303437e-06 0.0
-2.0505236e-06 0.0 1.1791433e-06 -1.564711e-06 6e-45 -1.1479249e-05 0.0 1.2581645e-06
-1.4414759e-06 -1.2742661e-06 0.0 -4.791452e-06 -4.313098e-06 0.0 -3.198578e-06 -1.3786523e-06
0.0 2.8730328e-06 0.0 -1.8095987e-05 -3.500856e-07 0.0 -5.634984e-06 2.6055654e-06
0.0 -4.025821e-06 0.0 0.0 3.1864079e-06 0.0 0.0 2.0974485e-06
-2.3627276e-06 -9.083618e-06 5.2295053e-07 0.0 -4.2539872e-07 -3.9868764e-06 0.0 -3.5897976e-06
1.6827554e-06 7.858148e-09 6.341745e-06 0.0 -3.3393485e-06 0.0 8.724984e-07 0.0
-1.2221999e-06 0.0 -7.5796943e-06 -9.269348e-06 0.0 2.519948e-06 -1.693953e-06 1.6506795e-06
0.0 -1.6144683e-06 0.0 1.5690902e-06 -2.2175977e-06 0.0 -1.7859429e-06 0.0
00000000: 42e4 91b3 0000 0000 4413 b635 73e6 3cb5
00000010: 0400 0000 6607 37b7 0000 0000 80df 7635
00000020: 67fd 79b5 4269 6d35 0000 0000 402a e6b3
00000030: 14dd a6b6 0000 0000 0e69 1db5 177f 8cb5
00000040: 0000 0000 1128 6536 0000 0000 67b5 97b7
00000050: 0a58 5535 0000 0000 89b9 6ab6 dbee 3636
00000060: 0000 0000 f94d 1db6 0000 0000 0000 0000
00000070: f24f 2436 0000 0000 0000 0000 07df f535
00000080: 8fc3 cfb5 3d14 9ab6 d65f 2135 0000 0000
00000090: 4016 8535 d05a 9bb5 0000 0000 e0c3 d7b5
000000a0: d615 f835 1a3c f636 4a83 1237 0000 0000
000000b0: 54e8 e134 0000 0000 5004 8435 0000 0000
000000c0: 3016 8d35 0000 0000 c4d9 64b5 80e2 5eb6
000000d0: 0000 0000 3461 9436 af7a a2b5 4907 f435
000000e0: 0000 0000 da2a fe35 0000 0000 2b79 aa35
000000f0: 08d5 42b4 0000 0000 2d49 ac34 0000 0000
00000100: ecf7 35b4 0000 0000 63e9 0335 c0f8 2fb2
00000110: 0400 0000 1092 14b6 0000 0000 94fb 3935
00000120: ce0b c8b4 b085 9834 0000 0000 74c0 0735
00000130: 6074 b7b3 0000 0000 cfe9 2bb5 b342 9933
00000140: 0000 0000 8033 d135 0000 0000 88da 45b6
00000150: 9087 7d35 0000 0000 8009 8c32 08ee 8735
00000160: 0000 0000 ff5b 88b5 0000 0000 0000 0000
00000170: a1e8 a235 0000 0000 0000 0000 69c5 5635
00000180: a1ed 23b5 782c 9fb5 1f1f f934 0000 0000
00000190: 403c 8c34 70bf b9b5 0000 0000 e19f 70b5
000001a0: 74bb 3435 e4d9 0936 b64b 5736 0000 0000
000001b0: 034e 83b3 0000 0000 a70b bd34 0000 0000
000001c0: e6b2 ae34 0000 0000 dddb 3f35 574a a6b5
000001d0: 0000 0000 8a9e 0936 2958 fbb4 5efc 4835
000001e0: 0000 0000 7c84 8a35 0000 0000 7131 5d35
000001f0: 00ea 0832 0000 0000 2015 a432 0000 0000
00000200: cbac 2836 0000 0000 1e8c 4636 523a ea35
00000210: 0400 0080 e0b2 4537 0000 0000 6d46 0234
00000220: 84b1 cd35 76b8 c635 0000 0000 cc3b 2336
00000230: be6b 2937 0000 0000 a298 7f36 2a33 5536
00000240: 0000 0000 179c 86b6 0000 0000 baf3 6637
00000250: 2d77 8136 0000 0000 cfe3 5836 ea01 63b6
00000260: 0000 0000 1856 8d36 0000 0000 0000 0000
00000270: 7095 36b6 0000 0000 0000 0000 0aa2 deb5
00000280: 2764 3236 a9b9 0937 de58 1735 0000 0000
00000290: 9add 5e36 cc1d 2436 0000 0000 4465 7436
000002a0: 6120 0bb6 a53c 9935 711c 2d36 0000 0000
000002b0: 3fe9 f236 0000 0000 20a6 94b5 0000 0000
000002c0: 1046 bf35 0000 0000 4c74 c536 e02e b736
000002d0: 0000 0000 9b09 0236 137b e135 cae6 00b6
000002e0: 0000 0000 b89b 2636 0000 0000 6f39 5335
000002f0: 09c7 3d36 0000 0000 e2c8 5836 0000 0000
00000300: ba9b 09b6 0000 0000 0e43 9e35 1003 d2b5
00000310: 0400 0000 0097 40b7 0000 0000 34de a835
00000320: bc78 c1b5 7307 abb5 0000 0000 42c6 a0b6
00000330: 3bb9 90b6 0000 0000 27a7 56b6 220a b9b5
00000340: 0000 0000 54ce 4036 0000 0000 d6cc 97b7
00000350: 66f3 bbb4 0000 0000 2514 bdb6 46db 2e36
00000360: 0000 0000 8a15 87b6 0000 0000 0000 0000
00000370: 12d6 5536 0000 0000 0000 0000 e4c1 0c36
00000380: 5a8f 1eb6 d865 18b7 e360 0c35 0000 0000
00000390: 5b62 e4b4 02c7 85b6 0000 0000 41e8 70b6
000003a0: 09db e135 8000 0732 2dcb d436 0000 0000
000003b0: 9219 60b6 0000 0000 a235 6a35 0000 0000
000003c0: 780a a4b5 0000 0000 1455 feb6 8c83 1bb7
000003d0: 0000 0000 611c 2936 c85b e3b5 ea8c dd35
000003e0: 0000 0000 b5b0 d8b5 0000 0000 8799 d235
000003f0: 0ad2 14b6 0000 0000 88b4 efb5 0000 0000

exp_avg_sq f4 [64, 64]
3.0606118e-09 0.0 6.1748415e-09 7.502098e-10 5.6171295e-14 1.4663541e-08 0.0 2.4947458e-10
3.677993e-10 1.1050006e-09 0.0 8.4564515e-09 8.305721e-09 0.0 1.0708568e-08 1.8839041e-09
0.0 7.1381727e-09 0.0 1.3343997e-08 1.7969916e-09 0.0 2.9619212e-09 4.6302393e-09
0.0 4.9295075e-09 0.0 0.0 3.2907495e-09 0.0 0.0 9.306586e-10
1.2898901e-09 8.584193e-09 4.3976295e-10 0.0 7.2380613e-09 1.800789e-08 0.0 5.377771e-09
1.8037084e-09 1.00269615e-08 1.4881148e-08 0.0 9.862259e-09 0.0 1.8691744e-10 0.0
2.6930538e-09 0.0 1.3509031e-08 8.444642e-09 0.0 8.930754e-09 4.963684e-10 1.0411069e-09
0.0 1.3392301e-08 0.0 4.2822473e-10 1.4275333e-09 0.0 4.6009325e-09 0.0
1.3782647e-10 0.0 2.4566474e-10 4.239239e-11 3.5715807e-13 9.095805e-10 0.0 3.83067e-11
2.8570321e-11 3.6701454e-11 0.0 1.3914779e-09 3.422748e-10 0.0 7.816099e-10 1.2445603e-10
0.0 9.817945e-10 0.0 5.4491844e-10 6.022549e-11 0.0 3.4306946e-10 5.732997e-10
0.0 3.9571635e-10 0.0 0.0 4.3338627e-10 0.0 0.0 1.5962613e-10
9.387757e-11 6.4027095e-10 4.207464e-11 0.0 3.941711e-10 6.744596e-10 0.0 4.995776e-10
2.3404628e-10 4.4813298e-10 3.8040965e-10 0.0 3.0329234e-10 0.0 1.9348332e-11 0.0
1.1630463e-10 0.0 4.000632e-10 4.5704188e-10 0.0 3.996747e-10 4.0168608e-11 1.7522758e-10
0.0 3.4976802e-10 0.0 6.56408e-11 4.6785978e-11 0.0 3.1379235e-10 0.0
2.4191495e-09 0.0 4.160738e-09 1.0032811e-09 2.8730345e-12 2.7207701e-08 0.0 7.8374995e-10
3.7489276e-10 1.0843526e-09 0.0 2.6375808e-08 8.486498e-09 0.0 1.1655598e-08 2.8888847e-09
0.0 1.40733505e-08 0.0 1.4547326e-08 1.3044349e-09 0.0 6.0801444e-09 8.496865e-09
0.0 5.358212e-09 0.0 0.0 6.243083e-09 0.0 0.0 2.4244873e-09
1.1258249e-09 1.3703159e-08 9.659707e-10 0.0 6.2631837e-09 1.672677e-08 0.0 6.901771e-09
3.4659822e-09 1.3252517e-08 9.6263175e-09 0.0 7.55737e-09 0.0 2.4859342e-10 0.0
3.3522922e-09 0.0 1.055384e-08 1.1455223e-08 0.0 1.0628558e-08 5.277793e-10 2.7372817e-09
0.0 8.80122e-09 0.0 1.2446063e-09 1.492617e-09 0.0 4.7108895e-09 0.0
3.3774752e-09 0.0 6.1766414e-09 1.5731593e-09 8.737014e-12 3.9874806e-08 0.0 1.0633322e-09
2.733223e-10 1.9453381e-09 0.0 2.4451278e-08 1.5129357e-08 0.0 8.5889775e-09 4.7390083e-09
0.0 8.943395e-09 0.0 2.1519043e-08 2.7766238e-09 0.0 7.730934e-09 5.176535e-09
0.0 3.5478627e-09 0.0 0.0 3.7932013e-09 0.0 0.0 1.8933544e-09
7.754989e-10 1.823986e-08 8.530351e-10 0.0 6.141939e-09 3.6040905e-08 0.0 5.519722e-09
2.1316318e-09 2.536216e-08 2.2874321e-08 0.0 1.6139193e-08 0.0 1.4342326e-10 0.0
6.684421e-09 0.0 2.5157979e-08 1.8241042e-08 0.0 2.159102e-08 3.6149694e-10 1.7497404e-09
0.0 1.673839e-08 0.0 1.2895935e-09 2.7609999e-09 0.0 4.774625e-09 0.0
00000000: da52 5231 0000 0000 7b2a d431 5237 4e30
00000010: 18f9 7c29 efea 7b32 0000 0000 6d26 892f
00000020: 2633 ca2f c1de 9730 0000 0000 de47 1132
00000030: f3b0 0e32 0000 0000 c8f8 3732 fe75 0131
00000040: 0000 0000 0844 f531 0000 0000 853f 6532
00000050: 05fa f630 0000 0000 ab8a 4b31 0418 9f31
00000060: 0000 0000 6860 a931 0000 0000 0000 0000
00000070: 7a23 6231 0000 0000 0000 0000 47d1 7f30
00000080: f947 b130 ae79 1332 22c3 f12f 0000 0000
00000090: a9b2 f831 c5af 9a32 0000 0000 60c7 b831
000000a0: 59e6 f730 0b43 2c32 fba7 7f32 0000 0000
000000b0: ac6e 2932 0000 0000 9584 4d2f 0000 0000
000000c0: b410 3931 0000 0000 5915 6832 ee13 1132
000000d0: 0000 0000 df6d 1932 d270 0830 b116 8f30
000000e0: 0000 0000 f613 6632 0000 0000 466b eb2f
000000f0: dd32 c430 0000 0000 3b16 9e31 0000 0000
00000100: b48a 172f 0000 0000 3d0e 872f 9771 3a2e
00000110: e70f c92a 0a06 7a30 0000 0000 8379 282e
00000120: a54e fb2d 2a6a 212e 0000 0000 473e bf30
00000130: e52a bc2f 0000 0000 e8d8 5630 42d7 082f
00000140: 0000 0000 d3ef 8630 0000 0000 3ac9 1530
00000150: f06f 842e 0000 0000 bc9a bc2f 6196 1d30
00000160: 0000 0000 208c d92f 0000 0000 0000 0000
00000170: b241 ee2f 0000 0000 0000 0000 c382 2f2f
00000180: 6070 ce2e 10ff 2f30 d50b 392e 0000 0000
00000190: a7b2 d82f e064 3930 0000 0000 a652 0930
000001a0: 16ab 802f 1c5d f62f e621 d12f 0000 0000
000001b0: 9abc a62f 0000 0000 9230 aa2d 0000 0000
000001c0: b0c1 ff2e 0000 0000 e4ef db2f ed42 fb2f
000001d0: 0000 0000 37b9 db2f d5a9 302e 2eaa 402f
000001e0: 0000 0000 7949 c02f 0000 0000 7c58 902e
000001f0: 54c4 4d2e 0000 0000 5982 ac2f 0000 0000
00000200: 213e 2631 0000 0000 3df6 8e31 d1e3 8930
00000210: fd2b 4a2c 5eb6 e932 0000 0000 806f 5730
00000220: 7719 ce2f 4408 9530 0000 0000 0491 e232
00000230: 03cc 1132 0000 0000 dd3d 4832 cc85 4631
00000240: 0000 0000 40c7 7132 0000 0000 d1eb 7932
00000250: b947 b330 0000 0000 84e9 d031 9cf9 1132
00000260: 0000 0000 551b b831 0000 0000 0000 0000
00000270: bd82 d631 0000 0000 0000 0000 089c 2631
00000280: 71bb 9a30 216b 6b32 13c3 8430 0000 0000
00000290: 8c33 d731 8eae 8f32 0000 0000 9f24 ed31
000002a0: 342e 6e31 30ad 6332 fe60 2532 0000 0000
000002b0: aad5 0132 0000 0000 6aaa 882f 0000 0000
000002c0: 265e 6631 0000 0000 4750 3532 9bcc 4432
000002d0: 0000 0000 e498 3632 2b13 1130 c51a 3c31
000002e0: 0000 0000 2d34 1732 0000 0000 b10e ab30
000002f0: cb24 cd30 0000 0000 6cdd a131 0000 0000
00000300: 2c19 6831 0000 0000 503a d431 9f36 d830
00000310: 03b4 192d d042 2b33 0000 0000 ad24 9230
00000320: b242 962f c0ae 0531 0000 0000 ee08 d232
00000330: cff5 8132 0000 0000 b98e 1332 c2d4 a231
00000340: 0000 0000 78a5 1932 0000 0000 e0d8 b832
00000350: e2ce 3e31 0000 0000 02d1 0432 49dd b131
00000360: 0000 0000 a9ce 7331 0000 0000 0000 0000
00000370: 5a55 8231 0000 0000 0000 0000 3e1c 0231
00000380: e22a 5530 e0ad 9c32 027b 6a30 0000 0000
00000390: 1109 d331 65cb 1a33 0000 0000 fda7 bd31
000003a0: 107c 1231 fbdb d932 2a7d c432 0000 0000
000003b0: 76a2 8a32 0000 0000 0fb2 1d2f 0000 0000
000003c0: caac e531 0000 0000 fb1a d832 7ab0 9c32
000003d0: 0000 0000 2877 b932 2cbc c62f 847b f030
000003e0: 0000 0000 1cc8 8f32 0000 0000 8a3d b130
000003f0: 06bc 3d31 0000 0000 0c0e a431 0000 0000

exp_avg f4 [64]
-9.346621e-08 9.423362e-08 1.1585713e-06 -3.6317584e-07 2.0169732e-06 1.904e-41 3.411745e-07 4.218674e-07
7.1352906e-07 -2.1232485e-07 7.7323614e-07 4.190294e-07 1.2810333e-06 -1.5344688e-10 3.5666352e-07 7.4950987e-07
6.607157e-07 1.0037069e-06 4.670073e-07 5.650786e-07 -2.2999696e-07 -2.4877488e-07 -1.3814434e-07 -2.844333e-07
5.1533497e-09 4.983519e-07 -2.99562e-08 2.1369716e-12 3.7071892e-09 -3.721997e-10 -2.8535133e-10 1.2701564e-06
4.9379105e-09 1.3637268e-07 4.5519334e-07 -1.3849348e-06 -8.717719e-07 2.637127e-07 -6.796664e-07 -6.300234e-07
-9.240323e-07 -1.9488855e-08 -2.0354662e-07 1.3233235e-06 8.502228e-07 9.89797e-10 -5.354666e-07 8.8766264e-08
1.1070713e-06 -2.2381968e-08 1.8555988e-09 5.2555254e-07 1.059816e-06 4.0691023e-07 1.6184876e-07 2.9988124e-07
9.923084e-07 1.2181965e-06 -8.1945734e-10 2.8819736e-07 9.315238e-07 8.0165563e-07 3.2658871e-09 5.596198e-09
00000000: 98b7 c8b3 7b5d ca33 3580 9b35 82fa c2b4
00000010: 565b 0736 1335 0000 ab2a b734 047d e234
00000020: 5889 3f35 69fb 63b4 6290 4f35 f6f6 e034
00000030: f8ef ab35 75b7 28af 767b bf34 ed31 4935
00000040: 0a5c 3135 1bb7 8635 ffb8 fa34 e8af 1735
00000050: 15f5 76b4 5c8f 85b4 d454 14b4 37b4 98b4
00000060: 5811 b131 7bc6 0535 31a9 00b3 4260 162c
00000070: 90c1 7e31 739e ccaf a1df 9caf 3e7a aa35
00000080: 52aa a931 d66d 1234 4c61 f434 ffe1 b9b5
00000090: b503 6ab5 6694 8d34 5272 36b5 e11e 29b5
000000a0: 040b 78b5 7268 a7b2 788e 5ab4 0d9d b135
000000b0: de3a 6435 6309 8830 fcbc 0fb5 c59f be33
000000c0: ae96 9435 7842 c0b2 1408 ff30 b213 0d35
000000d0: 003f 8e35 5175 da34 a6c8 2d34 5dff a034
000000e0: 752f 8535 ea80 a335 2f40 61b0 8bb9 9a34
000000f0: d40d 7a35 5b31 5735 186e 6031 ae48 c031

exp_avg_sq f4 [64]
2.3495184e-10 6.3056773e-12 1.3324261e-10 3.672931e-10 2.6735375e-10 1.6827844e-13 4.9064893e-12 4.6770504e-11
2.561047e-10 5.779329e-11 5.1055677e-11 1.2768536e-10 3.0048264e-10 2.576956e-12 4.848023e-11 9.1207675e-10
1.10210605e-10 6.653802e-11 6.187385e-10 1.1154539e-11 5.179435e-10 2.4905109e-10 2.4036998e-13 2.9601566e-10
1.4698436e-12 3.5146534e-12 8.447903e-11 3.4744728e-13 6.803542e-14 1.058954e-12 9.9681826e-14 8.3820104e-11
1.6494126e-13 2.3783248e-12 6.40313e-11 1.1595515e-12 3.7074344e-10 1.3304526e-10 3.392239e-11 1.3819186e-10
1.141691e-11 2.6936493e-12 1.5307833e-11 2.1878059e-10 1.370294e-10 1.693584e-13 1.4291335e-11 7.8627146e-11
1.1785506e-10 6.208615e-11 2.6079562e-12 7.21947e-11 1.29520275e-11 3.3301747e-11 1.5282417e-10 3.7520313e-11
1.395699e-10 3.2568323e-10 3.806209e-16 2.2645764e-10 6.277072e-11 3.0483827e-11 3.858605e-11 1.3753961e-12
00000000: 882a 812f 7edc dd2c 7680 122f e9eb c92f
00000010: b2fa 922f f576 3d2a baa1 ac2c e8b2 4d2e
00000020: 88cb 8c2f 762d 7e2e 958b 602e 3c64 0c2f
00000030: 2c31 a52f 5056 352c e337 552e b2b5 7a30
00000040: 0e5b f22e 9351 922e da13 2a30 943b 442d
00000050: 095f 0e30 d3ea 882f f750 872a 80bc a22f
00000060: b2dc ce2b 5e52 772c 77c5 b92e 6e98 c32a
00000070: c033 9929 d708 952b a976 e029 8652 b82e
00000080: 15b5 392a 175c 272c 6bce 8c2e 3f31 a32b
00000090: 80d1 cb2f e948 122f 3731 152e 8df1 172f
000000a0: 31d9 482d 798c 3d2c 2da6 862d 438d 702f
000000b0: 59aa 162f 3cae 3e2a 736a 7b2d 26e7 ac2e
000000c0: 4095 012f 6587 882e c384 372c 01c2 9e2e
000000d0: bfda 632d 6f76 122e 2e08 282f 1e04 252e
000000e0: 6f75 192f d70b b32f bb69 db25 29fe 782f
000000f0: c608 8a2e bd11 062e 08b4 292e de91 c12b
